fashion_model.pth (torch, 841245 bytes, 6 tensors)

layers.0.weight f4 [256, 784]
0.0061016106 -0.02205792 0.023282463 0.012127562 -0.01223096 0.003909172 0.008699032 -0.033803258
-0.028316006 -0.008163493 -0.024782576 0.032961767 0.032754477 0.033886924 -0.011954025 0.00735797
0.00999017 -0.0026988117 0.03214561 0.010266351 -0.025530638 -0.022548966 -0.026758801 0.016849972
0.01788564 0.014205222 0.016959969 0.000359477 -0.034740727 -0.004662349 -0.03177788 -0.0074006342
0.0050707567 0.018700793 -0.040786628 -0.04539008 -0.003988926 0.019424347 0.03193864 0.031174809
0.0073750825 0.041907232 0.051986974 0.02819096 0.001862271 0.0042485595 -0.0027459257 0.024857888
-0.028591456 0.009187153 -0.036522623 -0.024172947 0.016890148 0.013549343 0.027888687 -0.032079037
0.035205986 -0.0028208378 -0.0021626845 -0.004808402 0.0035087701 0.0170337 -0.006730492 -0.024215503
-0.00096510065 0.005400074 0.00089376804 0.02278711 -0.02507214 0.013051767 -0.0034848815 -0.0016630809
0.0015805841 0.028117988 -0.00465687 0.02572024 0.023950513 -0.02802029 -0.015448764 0.032753512
-0.021819403 0.03239342 0.00972185 -0.008675707 0.02721605 0.032496803 0.030214999 0.028322596
0.022156259 0.023061821 0.028886192 -0.02785616 0.015976995 0.0335654 0.028342022 -0.00035904735
-0.0051155686 -0.0056642042 0.030556304 0.006540161 -0.029197209 -0.026912829 -0.022012869 -0.037517406
-0.00016449207 -0.03666775 0.016362516 -0.015805872 -0.021534773 -0.015913455 0.011532993 -0.028817698
0.024104562 -0.002901496 0.01571609 -0.025282705 0.0059391204 -0.027269484 -0.038825516 0.005395029
0.008464196 0.02319984 0.013874903 0.0036630284 -0.023628011 0.031698763 -0.031838566 -0.03160091
-0.021127429 0.009327298 0.0102652665 0.021305379 -0.03626103 -0.021392891 -0.014370666 -0.014529134
0.016075553 -0.030252002 -0.018057939 0.010538788 0.030557306 -0.022542883 0.009319818 -0.016988002
0.047152366 -0.00079283345 -0.0036563068 -0.008212225 0.028096039 -0.0030089817 -0.013068937 -0.03655748
0.0017682897 -0.019216463 0.0029543622 -0.02502611 -0.037166353 -0.031814214 -0.00493925 -0.026595993
-0.013493488 -0.04837649 0.017829575 0.0023445482 0.0061995294 -0.026742054 0.03621878 -0.03360739
0.029640019 -0.021325996 0.016895564 -0.0020869959 0.055683717 0.018760491 0.010101521 0.019397117
0.03307774 0.034883864 0.021104034 -0.004954217 -0.008074823 0.0408881 -0.006780052 0.0102133155
0.015951242 -0.025311703 0.02461811 0.022396002 -0.02997496 -0.021651613 -0.012149059 0.044068914
0.003532658 -0.03020399 0.031327907 -0.017994026 -0.019989366 -0.012714308 0.029398896 -0.0037767307
0.059423205 0.04889081 -0.017573804 -0.016356898 0.02192546 0.027751142 -0.017727962 0.03501229
0.0375659 0.031677656 0.004543452 0.017925546 0.019634455 0.029628847 -0.023633458 0.025943775
0.0031793183 -0.029298041 0.002539646 -0.011904882 -0.013180748 0.0035054712 0.029474441 0.008578051
0.0051551308 0.004827073 0.039957635 0.022575177 0.015740432 0.037002426 0.03661537 0.0022420248
0.048202742 0.004370136 0.0024961606 0.03522562 -0.002929152 0.009518697 -0.0012621636 0.0082000485
0.009524193 0.016322717 0.0173697 -0.02170498 -0.0293769 -0.022204237 0.032923914 0.010377747
0.045332227 0.038171586 0.013939429 0.0068944553 0.0096184695 0.02374551 0.041204713 0.013239421
00000000: 05f0 c73b d0b2 b4bc ddba be3c afb2 463c
00000010: 5d64 48bc 8318 803b 6286 0e3c 4975 0abd
00000020: f8f6 e7bc 2cc0 05bc d404 cbbc eb02 073d
00000030: 8f29 063d 04cd 0a3d d1da 43bc 201b f13b
00000040: cfad 233c 8cde 30bb 1dab 033d 3234 283c
00000050: a125 d1bc 9cb8 b8bc 4635 dbbc f408 8a3c
00000060: e884 923c 05bd 683c a2ef 8a3c 3078 bc39
00000070: 4b4c 0ebd 9ec6 98bb 8629 02bd 0581 f2bb
00000080: 9728 a63b 6832 993c e10f 27bd f3ea 39bd
00000090: 89b5 82bb cf1f 9f3c 17d2 023d 5062 ff3c
000000a0: adaa f13b eba6 2b3d 4bf0 543d baf0 e63c
000000b0: 7217 f43a 8037 8b3b fdf4 33bb c5a2 cb3c
000000c0: a138 eabc b685 163c bf98 15bd 5806 c6bc
000000d0: 355d 8a3c 10fe 5d3c d176 e43c 4f65 03bd
000000e0: 2734 103d cedd 38bb d3bb 0dbb cd8f 9dbb
000000f0: 65f3 653b 428a 8b3c 768b dcbb 975f c6bc
00000100: cffe 7cba 1bf3 b03b c24b 6a3a 09ac ba3c
00000110: 1764 cdbc 14d7 553c 9c62 64bb bcfb d9ba
00000120: 9a2b cf3a b257 e63c a898 98bb 41b3 d23c
00000130: de33 c43c cf8a e5bc d01c 7dbc 8c28 063d
00000140: 9bbe b2bc f6ae 043d 6548 1f3c 8d24 0ebc
00000150: 32f4 de3c 5e1b 053d 7285 f73c ca04 e83c
00000160: 0b81 b53c 25ec bc3c bca2 ec3c 9a32 e4bc
00000170: 30e2 823c df7b 093d 872d e83c 853e bcb9
00000180: 80a0 a7bb ca9a b9bb 3751 fa3c d94e d63b
00000190: fc2e efbc 4b78 dcbc 5554 b4bc daab 19bd
000001a0: 817b 2cb9 ec30 16bd af0a 863c 517b 81bc
000001b0: b169 b0bc ef5c 82bc e1f4 3c3c 1813 ecbc
000001c0: ee76 c53c 0627 3ebb 08bf 803c ad1d cfbc
000001d0: f49c c23b 4164 dfbc 8107 1fbd c9c8 b03b
000001e0: 69ad 0a3c 970d be3c 9053 633c 6b0f 703b
000001f0: 888f c1bc 90d6 013d 2869 02bd f56f 01bd
00000200: 6e13 adbc 86d1 183c a62f 283c 9e88 ae3c
00000210: 7286 14bd 2540 afbc f172 6bbc 9b0b 6ebc
00000220: e1b0 833c 0cd3 f7bc 3eee 93bc e1aa 2c3c
00000230: 5153 fa3c daab b8bc 26b2 183c 6c2a 8bbc
00000240: d722 413d 27d6 4fba a69e 6fbb 918c 06bc
00000250: aa29 e63c 5632 45bb 181f 56bc 4cbd 15bd
00000260: f5c5 e73a d86b 9dbc f99d 413b 8e03 cdbc
00000270: bf3b 18bd 9f4f 02bd 6fd9 a1bb d7df d9bc
00000280: ca13 5dbc 6d26 46bd 540f 923c fea6 193b
00000290: 6c25 cb3b 2712 dbbc 255a 143d e7a7 09bd
000002a0: a0cf f23c dbb3 aebc 9168 8a3c fbc5 08bb
000002b0: 9c14 643d 9aaf 993c da80 253c b4e6 9e3c
000002c0: 867c 073d 62e2 0e3d 5ee2 ac3c fc56 a2bb
000002d0: 434c 04bc 487a 273d 332b debb c055 273c
000002e0: 2eac 823c 7d5a cfbc ebab c93c d277 b73c
000002f0: 0c8e f5bc b95e b1bc d90c 47bc 9b81 343d
00000300: 2b84 673b 5c6e f7bc b151 003d 3568 93bc
00000310: bdc0 a3bc ac4f 50bc f4d5 f03c 0783 77bb
00000320: bf65 733d bb41 483d f0f6 8fbc e7fe 85bc
00000330: 069d b33c 5d56 e33c 3b3a 91bc 0c69 0f3d
00000340: b3de 193d 6ec0 013d 3de1 943b 98d8 923c
00000350: 70d8 a03c 32b8 f23c f49a c1bc 0a88 d43c
00000360: 1c5c 503b 7202 f0bc 3170 263b b20c 43bc
00000370: 10f4 57bc 0cbc 653b 6274 f13c f48a 0c3c
00000380: 5fec a83b 6c2c 9e3b 9eaa 233d 94ef b83c
00000390: 14f2 803c db8f 173d 00fa 153d efee 123b
000003a0: 3d70 453d 5c33 8f3b a096 233b bd48 103d
000003b0: 04f7 3fbb 4ff4 1b3c 2f6f a5ba 7f59 063c
000003c0: 5c0b 1c3c 38b7 853c e74a 8e3c a4ce b1bc
000003d0: d3a7 f0bc a9e5 b5bc 3adb 063d 6d07 2a3c
000003e0: 49ae 393d cf59 1c3d 3462 643c e2ea e13b
000003f0: c996 1d3c f285 c23c 46c6 283d 28ea 583c

layers.0.bias f4 [256]
-0.0068546645 0.044386778 0.03804357 0.006352874 0.11575213 0.03491256 -0.03215418 -0.01039033
0.0008857099 -0.038801026 0.05980683 -0.09120681 0.06996994 0.10292332 0.08822982 0.07610725
0.060397252 0.01627465 0.012858147 -0.030308248 -0.030684404 0.01749911 0.060005695 0.01645696
0.02672153 -0.045462642 0.021728085 0.07089163 -0.040538654 -0.01828736 0.014055395 -0.008679939
0.006660395 0.09062973 0.0031134407 -0.026395997 0.0071217734 0.00029208613 0.009188507 0.10510475
0.049012635 0.06530909 -0.041046187 0.04815557 0.052553847 -0.05789138 -0.06529628 0.026623119
-0.02313964 0.060811684 0.08558076 0.09636308 0.009222627 -0.011558468 0.037170127 0.097158454
0.017933112 0.0113270115 -0.03276015 -0.025885828 -0.015152799 0.0029247785 0.01184074 0.021372335
-0.009908591 0.060181666 0.023576843 0.024571506 -0.027563555 0.074301384 0.041515507 0.023763655
-0.034912433 0.03952385 0.07494476 0.013156265 0.038635448 0.02006635 0.08806496 -0.015231117
0.05561641 -0.005196653 -0.0007117963 0.051333256 0.024733592 0.044452716 -0.09195644 0.124899
0.029983243 -0.04985957 0.03624927 0.057810694 -0.03667527 0.08207944 -0.025490256 -0.045467667
0.13269359 0.028246908 -0.11117073 -0.022138009 0.022233665 -0.11882198 0.074875556 -0.05734529
0.029252985 -0.039070934 -0.075940154 0.035175055 -0.0027170887 0.0053508263 -0.028072076 0.01361095
0.052013744 0.057035513 0.051722933 -0.011700206 0.026764965 0.005619991 -0.004057292 0.10363502
0.08446248 -0.06469125 0.10299729 0.06545271 0.003097876 0.0017497631 -0.022466434 0.066905625
0.008940334 0.0038047873 0.0050752754 0.027271975 0.009655167 -0.008786072 0.030904233 0.12016069
0.021973789 0.017303675 0.005796449 0.056434374 0.026115913 -0.013691797 -0.0026412806 0.06412939
-0.026551452 -0.0042856256 -0.02731592 0.11409235 0.012295473 0.016247144 0.00937669 0.008530822
-0.019528292 0.11672443 0.06868685 -0.011017465 -0.001220981 0.09515912 -0.017869972 0.032701742
0.12598501 0.025635011 0.0040806746 -0.008340712 -0.021749321 0.045480315 -0.0006174293 -0.009113875
0.081933945 0.004995364 0.021962373 0.075126946 0.074020416 0.04347835 0.08404942 0.09097694
-0.032549765 -0.045329213 -0.011239209 0.009025878 -0.046875484 0.064171664 0.053006813 -0.007461937
0.094480895 0.06371376 0.12773278 -0.0017127374 0.0758435 -0.0808552 0.053814676 0.020348867
0.015604167 0.0009334449 0.040258836 -0.0019808756 0.10255134 0.011994339 0.009689179 0.014342381
0.009374407 -0.07830702 0.04002704 -0.013459416 0.029847562 -0.017153457 -0.033869796 0.003109007
0.038604897 0.0733376 0.018688086 -0.021435192 0.052476354 0.087708086 -0.07977874 0.02789881
0.014592487 0.0037289532 -0.0058000567 0.030991085 0.16231352 0.08676782 0.056344595 0.10627804
0.085482486 -0.008795404 0.031875845 -0.011520488 0.03452666 0.03595635 -0.0044500125 0.010425079
0.023125531 0.053703662 0.14138809 0.011118033 0.09502346 0.028662793 -0.01558181 1.5626714e-05
0.10317144 0.01703433 -0.009279156 -0.035931513 -0.009377199 -0.036922507 0.06824402 0.08691795
0.10110839 -0.07410866 -0.03321525 0.055702835 0.0069099674 -0.023685854 -0.022082591 -0.0067235967
00000000: 189d e0bb e9ce 353d 93d3 1b3d c52b d03b
00000010: 740f ed3d 7900 0f3d 1ab4 03bd 343c 2abc
00000020: fc2e 683a d3ed 1ebd 02f8 743d a3ca babd
00000030: 664c 8f3d 76c9 d23d d6b1 b43d 1ede 9b3d
00000040: 1c63 773d 6a52 853c faaa 523c 0149 f8bc
00000050: dc5d fbbc 4b5a 8f3c 88c8 753d bfd0 863c
00000060: 1ce7 da3c 0937 3abd 19ff b13c a22f 913d
00000070: dc0b 26bd 60cf 95bc 9948 663c 4e36 0ebc
00000080: 713f da3b 149c b93d de0a 4c3b 6b3c d8bc
00000090: c45d e93b 2323 9939 648b 163c 2941 d73d
000000a0: 79c1 483d c6c0 853d 0c20 28bd c63e 453d
000000b0: b442 573d 831f 6dbd 0eba 85bd ba18 da3c
000000c0: 588f bdbc ac15 793d f744 af3d 025a c53d
000000d0: 801a 173c bb5f 3dbc b43f 183d 03fb c63d
000000e0: 76e8 923c ee94 393c 822f 06bd 840e d4bc
000000f0: 7243 78bc a4ad 3f3b aaff 413c 0915 af3c
00000100: a557 22bc 0d81 763d 3924 c13c 2f4a c93c
00000110: f7cc e1bc 532b 983d 2a0c 2a3d ffab c23c
00000120: 5700 0fbd c3e3 213d a37c 993d 608d 573c
00000130: 3440 1e3d 3062 a43c 675b b43d ef8b 79bc
00000140: 08ce 633d af48 aabb d797 3aba d242 523d
00000150: 1a9e ca3c 0d14 363d a853 bcbd 0ccb ff3d
00000160: 6b9f f53c 8c39 4cbd 1d7a 143d e8ca 6c3d
00000170: cf38 16bd 4419 a83d f1d0 d0bc 4e3c 3abd
00000180: d4e0 073e 0f66 e73c 7bad e3bd c55a b5bc
00000190: 6023 b63c f058 f3bd 5b58 993d e5e2 6abd
000001a0: f5a3 ef3c d808 20bd 8386 9bbd b813 103d
000001b0: 2f11 32bb fc55 af3b 69f7 e5bc 7600 5f3c
000001c0: 5d0c 553d 129e 693d 6ddb 533d 39b2 3fbc
000001d0: 3342 db3c e727 b83b 08f3 84bb 993e d43d
000001e0: aafa ac3d d97c 84bd 3ef0 d23d 120c 863d
000001f0: bc05 4b3b 4f58 e53a 870b b8bc d105 893d
00000200: 7b7a 123c bd59 793b 7f4e a63b 7a69 df3c
00000210: b530 1e3c 75f3 0fbc e02a fd3c cf16 f63d
00000220: 6002 b43c 70c0 8d3c 23f0 bd3b bb27 673d
00000230: 0af1 d53c 8f53 60bc 5619 2dbb 4556 833d
00000240: 6e82 d9bc 6f6e 8cbb a3c5 dfbc 40a9 e93d
00000250: f472 493c bb18 853c b0a0 193c dcc4 0b3c
00000260: ccf9 9fbc 380d ef3d b1ab 8c3d 9982 34bc
00000270: 5309 a0ba c9e2 c23d 0c64 92bc 43f2 053d
00000280: 3702 013e 8400 d23c 2eb7 853b 7ba7 08bc
00000290: a22b b2bc 9149 3a3d fbda 21ba 5d52 15bc
000002a0: fccc a73d 27b0 a33b 6fea b33c 28dc 993d
000002b0: 0498 973d 5b16 323d 1a22 ac3d 1e52 ba3d
000002c0: e752 05bd 20ab 39bd a924 38bc 47e1 133c
000002d0: 8200 40bd 6f6c 833d ac1d 593d 4483 f4bb
000002e0: 337f c13d 5c7c 823d 62cc 023e ee7d e0ba
000002f0: d653 9b3d 6997 a5bd c76c 5c3d abb2 a63c
00000300: 9fa8 7f3c 6db2 743a 73e6 243d 94d1 01bb
00000310: 7006 d23d e783 443c 5dbf 1e3c 4efc 6a3c
00000320: 1d97 193c 6e5f a0bd 65f3 233d e284 5cbc
00000330: e082 f43c 6885 8cbc 0ebb 0abd 7bc0 4b3b
00000340: 2b20 1e3d 0632 963d c217 993c db98 afbc
00000350: 72f1 563d 4ca0 b33d 0963 a3bd 0c8c e43c
00000360: 5415 6f3c 7461 743b 670e bebb 04e1 fd3c
00000370: 8435 263e 54b3 b13d 97c9 663d 4da8 d93d
00000380: 7111 af3d 991a 10bc 3f90 023d 6ec0 3cbc
00000390: d46b 0d3d f746 133d 69d1 91bb f3cd 2a3c
000003a0: c171 bd3c 5ff8 5b3d 0ac8 103e 6928 363c
000003b0: a99b c23d 3cce ea3c d94a 7fbc 1d16 8337
000003c0: 8c4b d33d 948b 8b3c 9a07 18bc ec2c 13bd
000003d0: d3a2 19bc 0e3c 17bd 85c3 8b3d 0a02 b23d
000003e0: ea11 cf3d 48c6 97bd b70c 08bd a828 643d
000003f0: 026d e23b d608 c2bc 8de6 b4bc 9e51 dcbb

layers.2.weight f4 [32, 256]
0.019216634 0.0051694224 -0.00055552105 0.008231265 -0.11282399 0.04661641 0.15712385 -0.035435367
0.08653001 0.066185094 0.121185586 0.08132924 0.01914989 -0.036632728 0.12761082 -0.06041088
-0.07022113 0.13922115 0.08777924 -0.00059225154 0.022815974 -0.0015453576 0.092095 0.017095238
0.016610395 0.06872877 0.039474882 -0.0011625333 0.055744015 -0.059914645 -0.038975418 0.09097838
0.17916135 0.022973087 0.030170497 -0.09777564 0.027046695 -0.007048004 -0.07308174 -0.057817046
-0.022895627 -0.0519817 0.04321679 -0.03676634 -0.05881986 0.012283521 -0.02804911 -0.06972003
-0.071277715 -0.050482254 0.033053067 -0.044828065 0.023350555 -0.07160577 0.042383242 0.0013683806
0.053514875 -0.08154267 0.010440274 0.0795328 0.028788192 0.0006173964 0.029794164 0.20234987
0.031042067 -0.016436594 0.03553835 -0.02203979 0.014182535 -0.053457912 0.013218864 -0.04221917
0.080446124 0.0983941 -0.12153186 -0.024122005 0.14239633 0.036455385 -0.034475923 -0.02554873
0.038280196 -0.026364695 0.11049597 -0.007128897 0.013160492 0.19601904 0.028620383 -0.105628364
0.03154295 -0.062254377 -0.01755622 0.011988762 -0.0049595134 -0.054355573 0.05121668 0.029184394
-0.10000604 -0.08997284 -0.028789824 0.0038426195 0.026524791 0.011931475 -0.029754436 0.053210046
0.03361281 -0.044887666 0.098024204 0.018546985 0.091679044 0.031670287 0.11527078 -0.084971346
-0.0124755595 0.003571171 -0.015460488 -0.046337448 0.0884012 0.0982202 -0.043299634 0.027503153
-0.08142894 0.14534143 -0.107272305 -0.050834518 -0.013772868 -0.039841883 0.023818295 -0.028286539
-0.111683495 0.034651477 0.108007334 0.022646371 -0.06106887 0.09744567 0.09062353 -0.010600846
-0.05719631 0.04852857 -0.023414547 -0.06438491 -0.027943907 -0.045771398 0.01419763 0.03301799
-0.009949486 0.08250012 -0.059596058 0.030637316 -0.03579721 -0.00028917973 0.003509475 -0.034335367
0.042701665 0.07066491 -0.089568004 -0.0025282716 -0.027507244 0.008969753 -0.05973242 0.006877988
-0.0039461064 0.08384689 -0.010069455 0.035000276 -0.016550917 0.022764212 0.022296522 0.10446929
0.080102906 -0.03317833 0.034220252 0.060626518 -0.06315073 0.06046081 -0.060267203 -0.02430213
0.20232338 0.028056804 0.08010526 -0.026296908 0.12155365 -0.052305907 -0.07559145 0.023538712
-0.050071288 -0.01799079 0.02612511 0.015531604 0.04681835 0.16601183 -0.074454 -0.05157323
0.04723032 0.03487857 0.111861795 0.009149933 -0.000168511 -0.043453872 -0.04938055 0.06931866
0.03031247 -0.06303525 0.035411425 0.013633911 -0.054104365 0.028638015 -0.010002846 0.057224803
-0.09614623 0.104420364 0.03455302 0.12230988 0.0034981344 -0.00081190834 0.08364838 0.12362269
-0.052966688 -0.048333306 0.041536678 -0.034252018 -0.046525113 -0.08884843 0.12895371 -0.0442363
0.117500596 0.067729115 0.0015067919 0.03893899 0.023129804 -0.05827791 -0.036969684 -0.05846644
-0.006504354 0.04418335 -0.0710256 0.029338198 -0.08076835 0.049353097 -0.05178511 0.0040567312
0.13841593 0.0113487765 0.016974116 0.052621223 0.008122498 0.1772052 0.050301947 0.12889792
0.01977502 0.03584312 0.057010844 0.03536822 -0.030484991 -0.024598038 -0.05843914 -0.040097147
00000000: 346c 9d3c 4264 a93b 63a0 11ba 6ddc 063c
00000010: 4410 e7bd d9f0 3e3d 13e5 203e ad24 11bd
00000020: a536 b13d 0d8c 873d 2630 f83d f28f a63d
00000030: 3be0 9c3c 330c 16bd 69ac 023e 6671 77bd
00000040: 19d0 8fbd fd8f 0e3e 9ac5 b33d 5441 1bba
00000050: 91e8 ba3c 998d caba 4e9c bc3d 500b 8c3c
00000060: 8612 883c abc1 8c3d 6ab0 213d 2560 98ba
00000070: d653 643d 0f69 75bd b0a4 1fbd df52 ba3d
00000080: 1376 373e 0e32 bc3c 1e28 f73c 983e c8bd
00000090: 0891 dd3c f1f2 e6bb e1ab 95bd 91d1 6cbd
000000a0: 9c8f bbbc c3ea 54bd 1704 313d 4d98 16bd
000000b0: 18ed 70bd d240 493c 3fc7 e5bc 60c9 8ebd
000000c0: 0dfa 91bd 7bc6 4ebd a762 073d a29d 37bd
000000d0: aa49 bf3c 0ca6 92bd 0d9a 2d3d 3c5b b33a
000000e0: 6a32 5b3d d8ff a6bd af0d 2b3c 18e2 a23d
000000f0: 37d5 eb3c c5d8 213a e412 f43c ce34 4f3e
00000100: ef4b fe3c 09a6 86bc a990 113d ca8c b4bc
00000110: dd5d 683c aff6 5abd ef93 583c 02ee 2cbd
00000120: f0c0 a43d d982 c93d b2e5 f8bd 839b c5bc
00000130: 58d0 113e 3e52 153d a036 0dbd 924b d1bc
00000140: b2cb 1c3d c6fa d7bc b64b e23d 8699 e9bb
00000150: 1b9f 573c 37b9 483e 4b75 ea3c af53 d8bd
00000160: 2e33 013d 72fe 7ebd 10d2 8fbc 836c 443c
00000170: 6a83 a2bb f3a3 5ebd 95c8 513d 1c14 ef3c
00000180: f7cf ccbd ae43 b8bd a3d8 ebbc 75d4 7b3b
00000190: 854a d93c 3c7c 433c 93bf f3bc c7f2 593d
000001a0: 96ad 093d 21dc 37bd eac0 c83d d9ef 973c
000001b0: 39c2 bb3d b4b8 013d 1613 ec3d 7505 aebd
000001c0: 4a66 4cbc 4f0a 6a3b fd4d 7dbc 56cc 3dbd
000001d0: b00b b53d ac27 c93d f55a 31bd 4b4e e13c
000001e0: 37c4 a6bd 62d4 143e 95b1 dbbd db37 50bd
000001f0: 98a7 61bc 3e31 23bd 961e c33c 2cb9 e7bc
00000200: 51ba e4bd b5ee 0d3d f332 dd3d e284 b93c
00000210: 5a23 7abd 9891 c73d d498 b93d 2caf 2dbc
00000220: ae46 6abd e5c5 463d ddcf bfbc 3cdc 83bd
00000230: 9fea e4bc ca7a 3bbd 2d9d 683c df3d 073d
00000240: 2b03 23bc d3f5 a83d ff1a 74bd 1cfb fa3c
00000250: 18a0 12bd 0c9d 97b9 38ff 653b 3ea3 0cbd
00000260: f1e7 2e3d c4b8 903d 6e6f b7bd 5cb1 25bb
00000270: df56 e1bc dff5 123c fba9 74bd bf60 e13b
00000280: 574e 81bb ebb7 ab3d 5bfa 24bc 735c 0f3d
00000290: ca95 87bc 037c ba3c 32a7 b63c fff3 d53d
000002a0: fe0c a43d 00e6 07bd 892a 0c3d 8353 783d
000002b0: 2c55 81bd c1a5 773d beda 76bd 4315 c7bc
000002c0: dc2d 4f3e 62d7 e53c 3a0e a43d 9d6c d7bc
000002d0: 1ff1 f83d b83e 56bd b1cf 9abd 42d4 c03c
000002e0: 8d17 4dbd 6c61 93bc 5404 d63c 4578 7e3c
000002f0: 99c4 3f3d 01ff 293e 577b 98bd 743e 53bd
00000300: 9474 413d d5dc 0e3d cc17 e53d 9ae9 153c
00000310: 54b2 30b9 b0fc 31bd 4243 4abd f1f6 8d3d
00000320: db51 f83c a018 81bd 920b 113d c460 5f3c
00000330: 8a9c 5dbd 459a ea3c fae2 23bc 8e64 6a3d
00000340: 51e8 c4bd 58da d53d 7887 0d3d 9a7d fa3d
00000350: f540 653b 3fd6 54ba d84f ab3d e52d fd3d
00000360: 99f3 58bd 25f9 45bd 5d22 2a3d d84b 0cbd
00000370: 1e91 3ebd 2af6 b5bd 710c 043e 1f31 35bd
00000380: 27a4 f03d 90b5 8a3d 8c7f c53a 7e7e 1f3d
00000390: b77a bd3c d1b4 6ebd 866d 17bd 817a 6fbd
000003a0: 7a22 d5bb 9af9 343d df75 91bd a956 f03c
000003b0: e069 a5bd 7926 4a3d a01c 54bd 54ee 843b
000003c0: e8bc 0d3e 38f0 393c 4d0d 8b3c 5a89 573d
000003d0: 3a14 053c 4875 353e 6a09 4e3d d1fd 033e
000003e0: 39ff a13c 3cd0 123d 3484 693d 44de 103d
000003f0: a9bb f9bc d381 c9bc e15d 6fbd e83c 24bd

layers.2.bias f4 [32]
0.001073463 0.04229281 0.1403137 -0.18151313 0.05130372 -0.06175617 0.38067713 0.031236192
0.10826765 0.3470557 -0.03149021 -0.01015962 -0.1353745 -0.013717424 -0.11471953 0.10067536
-0.22809093 -0.03527708 0.056520164 0.09107472 0.23670994 -0.04057501 0.048644535 0.049209706
0.13217676 0.109917946 -0.041209616 0.28741053 0.01882787 0.13155697 0.21890047 0.13060033
00000000: 71b3 8c3a 3a3b 2d3d 65ae 0f3e 94de 39be
00000010: d923 523d 0af4 7cbd 1de8 c23e 0be3 ff3c
00000020: 6ebb dd3d 49b1 b13e e1fb 00bd 8974 26bc
00000030: 9d9f 0abe 0cbf 60bc 13f2 eabd e22e ce3d
00000040: ab90 69be b37e 10bd b081 673d 6285 ba3d
00000050: 1764 723e fb31 26bd 7e3f 473d 1e90 493d
00000060: 5859 073e a91c e13d 6acb 28bd 7927 933e
00000070: e83c 9a3c dfb6 063e 7227 603e 18bc 053e

layers.4.weight f4 [10, 32]
0.09532441 -0.06224223 0.11664742 -0.102850005 -0.086819954 -0.05181949 0.5808108 0.16394812
-0.20368236 -0.050698515 -0.13871904 0.06866554 0.38398716 -0.47939906 0.051806707 0.03647678
0.16960448 0.2741811 -0.0033970817 -0.1348222 0.44830632 0.20174825 0.1560869 -0.1519171
0.04843924 0.36531976 -0.40496504 -0.466452 -0.1609192 -0.018200174 -0.38381967 0.18050615
0.53363293 -0.0044384883 -0.15423413 0.16351943 0.10967634 0.01614374 -0.36160213 -0.006804629
-0.37403738 -0.36550102 0.14982133 -0.013390218 -0.14716503 -0.2957809 -0.4696227 0.6452629
0.10803513 0.5958862 -0.12299568 -0.20553564 0.120474726 -0.67895615 -0.13183822 -0.24895847
0.10538997 0.09628314 0.24920452 0.0256956 0.46494016 0.11418273 -0.37470815 -0.31056312
0.39026117 -0.16597049 0.31349745 0.015149608 0.067117676 -0.15714552 0.13995516 0.061799783
0.12896326 -0.09003791 0.14278843 -0.3520976 0.44648144 0.40879261 -0.1610938 -0.3584349
0.1525721 0.44983143 0.0006163831 -0.23955904 0.1324001 -0.3348768 -0.64603156 0.2834527
0.07087617 -0.24211729 0.11035142 0.12715584 -0.39020732 0.21191329 0.3502475 0.11046281
-0.0675494 0.1609122 -0.22745411 -0.107033715 0.10545153 0.08778466 -0.14329174 0.06343886
-0.09270173 -0.15623559 0.08033118 -0.39977014 -0.41675705 0.12063963 0.31974006 0.401407
-0.20107411 -0.23915125 -0.073969245 -0.33967024 0.19171876 0.3481691 -0.4349841 0.15743618
-0.05706027 0.5455951 0.36820984 0.45800444 -0.2334068 0.052100364 0.28887782 0.2495049
0.11700058 0.15480436 0.6307809 0.34138092 0.119359255 0.08556992 -0.4190593 -0.1648318
0.037993792 -0.37050918 -0.010972905 -0.19287637 -0.18464804 -0.057076115 0.4793146 -0.21274592
-0.09549086 0.396531 -0.1667971 -0.19210956 -0.5352168 -0.107418545 -0.106998295 -0.0029870237
0.05747168 -0.071743086 0.628084 -0.009388271 0.03494201 -0.0075526084 -0.4625607 -0.12123126
-0.5123881 0.011575337 -0.07629462 -0.63320273 0.33810976 -0.036539156 0.6452093 0.035385437
0.37685704 0.6953498 -0.063578926 0.11855718 -0.4676731 -0.49315965 -0.3233908 -0.11629337
-0.61374885 -0.5559027 -0.07930399 -0.038021784 0.13725293 -0.43038514 0.6214965 -0.15036699
0.166344 -0.48828375 0.06769535 0.19229496 0.01859086 0.272826 0.6095602 0.0314302
0.066267975 0.15848926 0.6193533 0.040540315 -0.14709325 0.15231398 0.042734385 0.041214384
-0.4838933 0.19630522 -0.15522018 0.46939605 0.32884008 -0.2554892 0.5000556 -0.5992119
-0.29721963 -0.2182119 -0.13705143 -0.14054814 0.17092204 0.4157618 -0.0069258437 -0.12693796
-0.30283043 0.019043459 -0.015323471 0.16670805 -0.2599145 -0.047343142 -0.088929385 0.4461232
-0.44913703 -0.14083602 -0.6757624 0.40923575 0.12484239 0.14127943 -0.3830829 0.047446072
0.40711465 0.26842538 0.112863675 -0.3424555 -0.28254062 0.5093846 -0.5222654 0.43941003
0.15711519 -0.22152816 0.026632443 0.38409033 -0.2869006 -0.030809809 -0.10992292 0.2700145
0.4408424 -0.399439 -0.24286082 0.3939561 0.610419 0.09163427 -0.23759818 -0.22832163
00000000: 7239 c33d b5f1 7ebd d8e4 ee3d 06a3 d2bd
00000010: a9ce b1bd ac40 54bd 04b0 143f 04e2 273e
00000020: 1c92 50be 3fa9 4fbd 5d0c 0ebe 85a0 8c3d
00000030: f799 c43e cb73 f5be 4533 543d ad68 153d
00000040: ccac 2d3e 7761 8c3e 93a1 5ebb d50e 0abe
00000050: 6888 e53e 1897 4e3e 3fd5 1f3e 2890 1bbe
00000060: 3968 463d 310b bb3e 9457 cfbe ccd2 eebe
00000070: 01c8 24be 8818 95bc 0384 c4be 9bd6 383e
00000080: 2b9c 083f bd70 91bb 8def 1dbe a371 273e
00000090: fd9d e03d e03f 843c ea23 b9be 5ef9 debb
000000a0: d481 bfbe f322 bbbe c36a 193e a562 5bbc
000000b0: 6eb2 16be 9870 97be 6372 f0be f32f 253f
000000c0: 8641 dd3d ff8b 183f 29e5 fbbd ef77 52be
000000d0: 74bb f63d 12d0 2dbf 9900 07be f8ee 7ebe
000000e0: b2d6 d73d 1830 c53d 782f 7f3e 947f d23c
000000f0: a30c ee3e a3d8 e93d bfd9 bfbe 2102 9fbe
00000100: 50d0 c73e 2bf4 29be bd82 a03e 1036 783c
00000110: fe74 893d c1ea 20be 6850 0f3e c521 7d3d
00000120: f20e 043e cc65 b8bd 2137 123e 2346 b4be
00000130: 3799 e43e 444d d13e c6f5 24be c784 b7be
00000140: dc3b 1c3e 4e50 e63e c594 213a f74e 75be
00000150: e493 073e f974 abbe 5362 25bf b620 913e
00000160: 8727 913d 98ed 77be edff e13d 2435 023e
00000170: 41c9 c7be ccff 583e a453 b33e 533a e23d
00000180: 5757 8abd 2bc6 243e bbe9 68be 7e34 dbbd
00000190: f9f6 d73d 72c8 b33d 12bb 12be 3cec 813d
000001a0: 68da bdbd 39fc 1fbe ac84 a43d acae ccbe
000001b0: 2e61 d5be e911 f73d f8b4 a33e 3885 cd3e
000001c0: 5fe6 4dbe 11e4 74be 307d 97bd 42e9 adbe
000001d0: ec51 443e 3843 b23e 3cb6 debe f336 213e
000001e0: 08b8 69bd 1fac 0b3f 0086 bc3e 8f7f ea3e
000001f0: 3102 6fbe 3167 553d cbe7 933e 367e 7f3e
00000200: 009e ef3d 0985 1e3e db7a 213f 7bc9 ae3e
00000210: a072 f43d 483f af3d f18e d6be abc9 28be
00000220: 619f 1b3d 61b3 bdbe b3c7 33bc 6281 45be
00000230: 6014 3dbe a5c8 69bd b968 f53e 11da 59be
00000240: b690 c3bd 1c06 cb3e dccc 2abe 5eb8 44be
00000250: f803 09bf 41fe dbbd ec21 dbbd f1c1 43bb
00000260: 6d67 6b3d 0aee 92bd 1dca 203f 43d1 19bc
00000270: 5a1f 0f3d df7b f7bb c2d4 ecbe 1848 f8bd
00000280: de2b 03bf 7ba6 3d3c 5b40 9cbd 9319 22bf
00000290: b91c ad3e 15aa 15bd 702c 253f 52f0 103d
000002a0: 68f3 c03e 7202 323f ab35 82bd 1bce f23d
000002b0: d972 efbe 6c7f fcbe 7b93 a5be 382b eebd
000002c0: a51e 1dbf a44f 0ebf 216a a2bd bbbc 1bbd
000002d0: 088c 0c3e 715b dcbe 651a 1f3f cef9 19be
000002e0: 1556 2a3e 5400 fabe dca3 8a3d f8e8 443e
000002f0: dc4b 983c d9af 8b3e 230c 1c3f f4bc 003d
00000300: 81b7 873d 024b 223e f08d 1e3f 9a0d 263d
00000310: 9d9f 16be 32f8 1b3e 400a 2f3d 6ad0 283d
00000320: ddc0 f7be 3c04 493e 0af2 1ebe ae54 f03e
00000330: ba5d a83e 7bcf 82be a503 003f f365 19bf
00000340: 2c2d 98be f172 5fbe 3657 0cbe daeb 0fbe
00000350: 3006 2f3e bbde d43e 30f2 e2bb 06fc 01be
00000360: 970c 9bbe 0701 9c3c 4c0f 7bbc 84b5 2a3e
00000370: 8313 85be e2ea 41bd 9c20 b6bd 436a e43e
00000380: 4af5 e5be 5137 10be c4fe 2cbf 5987 d13e
00000390: 5ead ff3d 8eab 103e 7123 c4be d056 423d
000003a0: 5571 d03e 0d6f 893e 1225 e73d 5456 afbe
000003b0: 2aa9 90be 0767 023f 2fb3 05bf 5afa e03e
000003c0: cee2 203e 47d8 62be 482c da3c 7da7 c43e
000003d0: a3e4 92be da64 fcbc 451f e1bd 573f 8a3e
000003e0: 18b6 e13e 4583 ccbe 82b0 78be 9db4 c93e
000003f0: 6b44 1c3f c0aa bb3d f04c 73be 25cd 69be

layers.4.bias f4 [10]
0.11931449 -0.23135306 -0.17409733 -0.025823867 -0.3525101 0.5542378 0.23750496 -0.021947986
-0.012948493 -0.3525784
00000000: 285b f43d d1e7 6cbe 9246 32be 938c d3bc
00000010: 347c b4be 87e2 0d3f 8034 733e 43cc b3bc
00000020: ea25 54bc 2885 b4be
