fashion_model.pth (torch, 841245 bytes, 6 tensors)

layers.0.weight f4 [256, 784]
0	0x3cbcd7e0	0.023052156
1	0xbc316422	-0.010827096
2	0xbcb52474	-0.022112109
3	0x3c050c56	0.008120617
4	0xbcbb0b6c	-0.022832595
5	0xbc2ed235	-0.010670234
6	0xbc2368d9	-0.009973728
7	0xbc0839d4	-0.008314569
8	0xbc80f571	-0.015742036
9	0xbc25d9bd	-0.010122714
10	0xbd50be35	-0.050962646
11	0xbd5bd3f4	-0.05366893
12	0x3d7842a4	0.06061043
13	0x3d5d9d8a	0.05410532
14	0x3d5395dc	0.05165659
15	0x3d7a101b	0.061050516
16	0xbd41a3fc	-0.04727553
17	0xbd182d4d	-0.037152577
18	0xbc81cf89	-0.01584603
19	0x3b8eda90	0.004359551
20	0xbc190abe	-0.00934094
21	0x3c3f3213	0.0116696535
22	0xbc2a4e09	-0.010394582
23	0xbcdcedee	-0.026968922
24	0xbcd14e2b	-0.025549969
25	0x3be8acda	0.0071006836
26	0xbd11c8ae	-0.035591774
27	0xbc00d0ea	-0.007862309
28	0x3cb12655	0.021624723
29	0xbd028d3b	-0.03187297
30	0xbd0b1d62	-0.03396357
31	0x3ca56068	0.020187572
32	0x3c0986ad	0.008393926
33	0xbc88b59a	-0.016688157
34	0x3d2b870f	0.04187685
35	0x3c8eb3a4	0.017419644
36	0x3cd67973	0.026180958
37	0xbc12c740	-0.008958638
38	0xbd05d44b	-0.03267316
39	0xb867c1df	-5.525525e-05
40	0x3cd944fa	0.026522148
41	0x3d0561b5	0.032563884
42	0xbd0d144d	-0.03444319
43	0x3d55fe22	0.052244313
44	0xbca57345	-0.020196566
45	0xbd80c0b9	-0.06286759
46	0xbd9ae17b	-0.07562538
47	0xbd41984a	-0.047264375
48	0x3cdea797	0.027179522
49	0xbcbf1acb	-0.023328206
50	0xbca200c7	-0.019775761
51	0xbc452b63	-0.01203427
52	0xbc9c240e	-0.019060161
53	0x3c5e80b6	0.013580492
54	0x3ccea411	0.025224717
55	0xbcb8d660	-0.02256316
56	0xbcc4ae13	-0.024008786
57	0xba02584c	-0.00049722637
58	0xbc6759fe	-0.014120577
59	0xbb557045	-0.0032568139
60	0x3bc5fbf0	0.006041996
61	0x3bb2dd29	0.0054584933
62	0x3c87aa97	0.016560836
63	0xbce1d0ce	-0.027565386
64	0x3c953d65	0.018217752
65	0xbc89394f	-0.01675096
66	0x3d0c3c18	0.034236997
67	0x3b875872	0.0041304165
68	0xbbc153fe	-0.005899905
69	0x3c3b9f0d	0.011451495
70	0x3cb50cd2	0.02210084
71	0x3c48da5a	0.01225909
72	0x3cd82def	0.02638909
73	0x3cdc2c87	0.026876701
74	0x3b80e3d3	0.0039334088
75	0x3d11794e	0.035516076
76	0xbd413216	-0.047166906
77	0xbd0355e7	-0.032064345
78	0x3cca32e7	0.024682475
79	0x3ceef265	0.029168317
80	0x3d2f3f24	0.042784825
81	0xbc39a49b	-0.011330749
82	0xbc9d92a2	-0.019234959
83	0x3bcc54ba	0.006235686
84	0xbcbea900	-0.023273945
85	0xbc871c96	-0.016493123
86	0x3b447799	0.0029978512
87	0x3cec598c	0.028851293
88	0x3bf6758f	0.0075213383
89	0x3b3f0332	0.0029146192
90	0xbd40ef8f	-0.04710346
91	0x3d274887	0.04084065
92	0x3ca11339	0.019662486
93	0x3cf6ad86	0.03011204
94	0xbd1ce241	-0.03830171
95	0xbd06dd2c	-0.03292577
96	0x3c38b3e3	0.011273357
97	0x3c613c94	0.013747353
98	0x3d47b85e	0.04875981
99	0x3c3efd1f	0.011657028
100	0x3cf3812d	0.029724682
101	0xbc992116	-0.018692534
102	0xbccbf5c9	-0.024897473
103	0x3afea476	0.0019427675
104	0x3d1ad842	0.037803896
105	0x3cbb4fb1	0.022865148
106	0xbd6c4142	-0.057679422
107	0xbc03c21b	-0.008041884
108	0x3c54a673	0.012979138
109	0x3d274787	0.0408397
110	0x3c369248	0.011143275
111	0xbd0adfcb	-0.03390483
112	0xbc3943c0	-0.011307657
113	0xbbf23285	-0.0073912763
114	0xbc9f394d	-0.019436503
115	0xbc066c84	-0.008204583
116	0xbc0d27d0	-0.008615449
117	0xbc3e409d	-0.011612085
118	0x3b43cfcf	0.0029878502
119	0xbcab73a0	-0.020929158
120	0xbc697ee2	-0.014251443
121	0xbca31855	-0.019909063
122	0xbd03c9f0	-0.032175004
123	0x3d0d7eb2	0.034544654
124	0x3d0c4a3c	0.034250483
125	0x3c862443	0.016374713
126	0xbab5d2e5	-0.0013872056
127	0x3d6be036	0.05758687
128	0x3d40e4fe	0.047093384
129	0xbd1c0c4d	-0.03809767
130	0xbc4e2967	-0.012583113
131	0x3baa056c	0.0051886346
132	0xbc814963	-0.015782064
133	0xbb3a514d	-0.0028429807
134	0xbc8ce6f5	-0.017199973
135	0x3b69a478	0.003565101
136	0x3cb155f1	0.021647425
137	0x3bcd6cee	0.006269089
138	0x3beae37f	0.007168233
139	0x3cd07615	0.02544693
140	0x3c133160	0.00898394
141	0x3ae9a6a1	0.0017826149
142	0xbc5be278	-0.013420694
143	0x3d23411c	0.039857015
144	0xbcdc0fdb	-0.02686303
145	0xbb64f3da	-0.0034935386
146	0x3b0f2cd8	0.0021846797
147	0x3b9f53cb	0.004862284
148	0xb9e79cc1	-0.00044176544
149	0xbcf7c3fd	-0.030244822
150	0x3928c3c7	0.00016094661
151	0x3cec1911	0.028820546
152	0x3bfd9a8c	0.0077393707
153	0xbb1b399c	-0.002368546
154	0x3bfc3ad6	0.0076974435
155	0x3bb147fa	0.0054101916
156	0x3c84d98d	0.016217018
157	0x3c9711cb	0.018441102
158	0x3b131af3	0.0022446483
159	0x3c3b3011	0.011425034
160	0xbd5da033	-0.054107856
161	0xbd2d8f2c	-0.042372867
162	0xbc9f5811	-0.019451173
163	0xbd5896a2	-0.05287803
164	0xbc687c59	-0.014189803
165	0x3c122c26	0.008921659
166	0xbb7f5467	-0.003896022
167	0x3cf93925	0.030422756
168	0x3b87d3f0	0.004145138
169	0x3b5247cb	0.003208625
170	0x3d24d26a	0.04023973
171	0x3c8bde47	0.017073764
172	0xbba897c1	-0.0051450436
173	0x3ceb622b	0.028733334
174	0xbbcf76b6	-0.00633129
175	0xbd1f29f2	-0.03885836
176	0xbc8bce4f	-0.017066149
177	0x3cea2667	0.028582765
178	0x3c9716de	0.018443521
179	0x3d148b9a	0.036265947
180	0x3d4ac5ef	0.04950517
181	0x3d0f768c	0.035025164
182	0x3c7ea280	0.015541673
183	0xbd026916	-0.0318385
184	0xbbc91de2	-0.0061375955
185	0xbb7b52d7	-0.0038348937
186	0x3b55f609	0.003264787
187	0x3cc8904e	0.024482872
188	0x3b40cdf3	0.002941963
189	0x3bb91957	0.0056487727
190	0xbc29013a	-0.010315234
191	0x3c6b81ee	0.014374239
192	0xbd0bd97a	-0.03414295
193	0x3d0dfd1e	0.03466522
194	0x3cce1906	0.025158416
195	0xbc2ca903	-0.010538342
196	0xbc84fbf9	-0.016233431
197	0x3b10e0d2	0.002210666
198	0x3c8e08b5	0.017338136
199	0x3d48bc4a	0.04900769
200	0x3cd9a884	0.026569612
201	0x3aad60f7	0.001322775
202	0x3c85ef59	0.016349481
203	0xbc5c9e8c	-0.013465535
204	0x3c08c3fc	0.008347508
205	0x3c8f519d	0.017494971
206	0x3cdd52aa	0.027016956
207	0x3d614092	0.05499322
208	0xbc42dbb0	-0.011893198
209	0x3d4e7872	0.050407834
210	0xbcd5bb7d	-0.026090378
211	0x3cc40327	0.023927284
212	0xbd04514f	-0.032304104
213	0x3bab9d1d	0.005237235
214	0x3c68e0f0	0.0142137855
215	0xbc2450f5	-0.010029067
216	0xbd288eb3	-0.041151714
217	0x3add386e	0.0016877779
218	0x3c58805a	0.013214195
219	0x3b44f82b	0.0030055146
220	0xbc31dbdd	-0.010855642
221	0xba55c916	-0.00081552693
222	0x3c193b63	0.009352538
223	0x3ba5d56b	0.005060842
224	0xbcc285fc	-0.02374553
225	0x3b4db1b5	0.003138644
226	0x3cc8566c	0.024455272
227	0x3d02d559	0.031941745
228	0xbc3595ef	-0.01108311
229	0x3d393d64	0.045224562
230	0xbb3ff5b1	-0.002929073
231	0x3c057a95	0.008146902
232	0x3d04bada	0.032404758
233	0xbb7e3622	-0.003878959
234	0x3ca01e01	0.019545557
235	0x3ceee667	0.029162599
236	0x3a31908b	0.0006773553
237	0x3cbd45d9	0.023104595
238	0xbc0a928d	-0.008457792
239	0x3c824d24	0.015905924
240	0xbc4c3324	-0.012463365
241	0x3c9ae09e	0.018905934
242	0x3d2dd0c3	0.04243542
243	0x3d16da13	0.036829066
244	0xbd1b0943	-0.03785063
245	0xba927007	-0.0011172303
246	0xbb01f250	-0.0019828267
247	0x3d087ce9	0.03332225
248	0x3d0b6f83	0.034041893
249	0x3cb5311d	0.022118146
250	0xbc29addc	-0.010356393
251	0xbbb4b647	-0.005514893
252	0xbba7e0a5	-0.0051232153
253	0x3cda78b6	0.026668888
254	0x3d0c9a85	0.03432705
255	0xbbe0af37	-0.0068568247

layers.0.bias f4 [256]
0	0xbcaf03d6	-0.021364134
1	0x3d06098c	0.03272395
2	0xbd040921	-0.03223527
3	0xbad0b232	-0.0015922247
4	0x3d873a4d	0.06602917
5	0x3dff6f19	0.12472362
6	0xbd003748	-0.03130272
7	0xbcb748e6	-0.022373628
8	0xbdc21af7	-0.094777994
9	0x3cf1f7e0	0.029537141
10	0xbca98982	-0.020695452
11	0x3c740ea5	0.01489607
12	0xbc03e4d6	-0.008050164
13	0x3d1a5538	0.037678927
14	0x3d647ab8	0.055781096
15	0xbd5f06ac	-0.054449722
16	0x3d6b18f6	0.05739685
17	0xbd2ea80b	-0.042640727
18	0xbc9c489c	-0.019077592
19	0x3c9f3734	0.019435503
20	0x3d3734df	0.044728156
21	0xbd243cf1	-0.04009718
22	0x3dcf6078	0.10125822
23	0x3bd58c58	0.0065169744
24	0x3c520a1b	0.012819792
25	0xbcfc98f6	-0.030834656
26	0x3c1d2d5e	0.009593336
27	0x3cf38ff4	0.029731728
28	0x3d0dbf8b	0.034606498
29	0xbd471822	-0.048607
30	0x3c273371	0.010205136
31	0x3c9bd1bc	0.019020908
32	0x3ca1d0e1	0.019752922
33	0xbbaf3da1	-0.005347923
34	0xbcf3dfa4	-0.029769726
35	0x3b810cbf	0.003938287
36	0x3d8db8b5	0.06919996
37	0x3e1b2cff	0.15153883
38	0x3beb7451	0.007185497
39	0xbbecd5a9	-0.0072276187
40	0xbd0129e3	-0.031534087
41	0xbcdf714c	-0.027275704
42	0x3d92e125	0.07171849
43	0x3d1072cb	0.035265725
44	0xbcffcec2	-0.03122652
45	0xbcc97c16	-0.024595302
46	0xbe2737f9	-0.16329946
47	0xbd97ed1f	-0.07418274
48	0xbc3cdea1	-0.011527688
49	0xbd2381b2	-0.03991861
50	0x3d387b35	0.045039374
51	0x3cd073d3	0.025445854
52	0x3d25551f	0.04036438
53	0x3d0a0fd6	0.03370651
54	0x3d000113	0.031251024
55	0x3d667790	0.056266367
56	0x3b488d26	0.003060171
57	0xbac33160	-0.0014892034
58	0xbcb847ac	-0.022495113
59	0x3d38a7f1	0.045082036
60	0xbc330152	-0.010925608
61	0x3db2595b	0.087084495
62	0x3d6af5be	0.057363264
63	0x3d386771	0.045020524
64	0x3e04c004	0.12963873
65	0xbb9423bd	-0.004520862
66	0x3bb7d198	0.0056097023
67	0x3da74dff	0.081691734
68	0x3dcef8bc	0.10106036
69	0xbdbb2e75	-0.0913972
70	0x3d433376	0.0476565
71	0x3c9cc124	0.019135065
72	0xbd2f651a	-0.042821027
73	0xbccbe034	-0.024887182
74	0xbc211fbe	-0.009834228
75	0x3d44ccdc	0.04804693
76	0xbb3ab42a	-0.0028488734
77	0x3d58c335	0.05292054
78	0x3d82073f	0.06349038
79	0x3da9be78	0.08288282
80	0x3c9e2b4c	0.019307755
81	0xbd056967	-0.032571223
82	0x3d7dfc2e	0.062008075
83	0xbb9d6ee4	-0.004804479
84	0xbd14022c	-0.036134884
85	0xbba447db	-0.0050134487
86	0x3be5c5f2	0.0070121223
87	0xbccba310	-0.024858028
88	0xbdc27464	-0.09494856
89	0x3d0a8dc8	0.03382662
90	0xbd9b256c	-0.07575497
91	0xbb08ad68	-0.0020855311
92	0xbc35bbe0	-0.011092156
93	0x3bb4114f	0.0054952274
94	0x3c06f943	0.00823814
95	0x3d97c5bc	0.07410762
96	0x3cb305dd	0.021853382
97	0xbc15c935	-0.00914221
98	0x3c390f34	0.011295129
99	0x3d8e0f53	0.069365166
100	0x3ddb0682	0.10694601
101	0x3d82cd73	0.063868426
102	0x3db1891f	0.08668732
103	0xbc91b413	-0.017786061
104	0x3d86ccef	0.06582057
105	0x3ce3de19	0.027815865
106	0xbcefe23c	-0.029282682
107	0xbd60c833	-0.054878425
108	0x3d1db3a9	0.038501415
109	0x3d47511b	0.048661333
110	0xbc8a1212	-0.01685432
111	0x3c23ebe0	0.010004967
112	0x3cfb3d56	0.030668896
113	0xbd21b43a	-0.039478518
114	0x3bf7765a	0.0075519504
115	0x3d051f1d	0.032500375
116	0x3d959ae9	0.073049374
117	0xbd82765d	-0.06370232
118	0x3cdb766b	0.026789865
119	0x3da20c7d	0.07912538
120	0xbc3dd2ce	-0.011585904
121	0x3cfe71e3	0.031060165
122	0x3e06d57f	0.1316738
123	0xbd3f8b71	-0.04676384
124	0x3cd8b7ca	0.026454825
125	0x3e1ee2c1	0.15516187
126	0x3d37e87a	0.04489944
127	0xbbcc58f4	-0.00623619
128	0x3e23bddf	0.15990399
129	0x3b9ff256	0.0048811836
130	0x3d1e23a1	0.038608197
131	0x3d74bdc6	0.059751295
132	0xbc4fbff3	-0.012680042
133	0xbd425d6a	-0.047452368
134	0xbc62e5b9	-0.013848715
135	0xbcdb0c3f	-0.026739238
136	0x3d7280a0	0.059204698
137	0x3d24c31f	0.040225144
138	0x3d43a549	0.04776505
139	0x3d0b638b	0.03403048
140	0xbbf967c9	-0.007611249
141	0x3d6814c0	0.056660414
142	0x3b709bb2	0.0036713895
143	0x3d0f7abe	0.035029165
144	0x3c13c542	0.009019198
145	0x3cc8274a	0.024432797
146	0xbc2423ef	-0.010018333
147	0xbc10f329	-0.008847036
148	0x3cddab2f	0.027059166
149	0xbd3b8fee	-0.04579156
150	0xbb9d4847	-0.004799876
151	0xbcb9b4f8	-0.0226693
152	0x3c630693	0.013856548
153	0xbd672765	-0.056434054
154	0x3cb50c5c	0.02210062
155	0xbd002565	-0.031285662
156	0x3ca1be9e	0.019744214
157	0x3c9b0887	0.018924965
158	0x3db78000	0.08959961
159	0xb93f19f5	-0.00018224849
160	0x3d3103a3	0.04321636
161	0x3d04b120	0.032395482
162	0xbd252881	-0.04032183
163	0x3d7b37e3	0.061332595
164	0x3d75b3b9	0.05998585
165	0xbcead9f4	-0.028668381
166	0x3d3d02fe	0.04614543
167	0x3cbb7899	0.022884654
168	0xbda6f5cf	-0.08152353
169	0x3d70eed9	0.058821533
170	0x3df2cda3	0.11855628
171	0x3d726f3d	0.059188116
172	0x3be95298	0.0071204416
173	0xbc660715	-0.014039774
174	0x3d1bb938	0.038018435
175	0x3b775354	0.0037738876
176	0x3dd79043	0.105255626
177	0xbc68f2a1	-0.0142180035
178	0xbdb7990b	-0.089647375
179	0x3ca99bd1	0.020704182
180	0xbc7a948b	-0.0152942045
181	0x3d114753	0.03546841
182	0x3d2a5ce8	0.04159251
183	0x3be59b96	0.0070070727
184	0x3a99f468	0.0011745812
185	0xbc9fb2ff	-0.019494532
186	0xbd98b621	-0.07456613
187	0x3c7b9da8	0.015357412
188	0xbcffff94	-0.031249799
189	0x3ccab79b	0.024745753
190	0xbaf4a103	-0.0018663708
191	0xbc7e96b8	-0.015538864
192	0x3b81b38e	0.003958172
193	0x3cdb727d	0.02678799
194	0xbb291db1	-0.002580505
195	0xbcc7dc93	-0.02439717
196	0x3d1d23d0	0.03836423
197	0x3b3fcea0	0.0029267445
198	0xbb7098b0	-0.0036712103
199	0x3d314abd	0.043284167
200	0x3dd314ea	0.103067234
201	0xbd094849	-0.033516202
202	0x3c7aa24d	0.015297485
203	0xbcb4098c	-0.021977209
204	0x3cbe8337	0.023255927
205	0xbdb1647a	-0.086617425
206	0x3d500551	0.05078632
207	0x3d0f0eba	0.034926154
208	0x3d0be89e	0.034157388
209	0x3c676eb0	0.014125511
210	0x3cd1f69c	0.025630288
211	0xbd3c7a1b	-0.046014886
212	0x395212a3	0.00020034103
213	0xbc038684	-0.0080276765
214	0xba067a35	-0.00051299046
215	0x3cdec781	0.02719474
216	0x3d7617a2	0.06008113
217	0xbd16cea4	-0.03681816
218	0x3d2b1f21	0.041777734
219	0x3d88f0e1	0.06686569
220	0x3d3efe26	0.046629094
221	0x3db47e19	0.08813114
222	0x3c8c5479	0.017130123
223	0x3bcf26e7	0.006321776
224	0xbd17b1d6	-0.037034832
225	0x3b1c87fc	0.0023884764
226	0x3cd1af64	0.025596328
227	0x3ceaf7f0	0.028682679
228	0x3d178a97	0.036997404
229	0xbc70ff3e	-0.014709292
230	0x3d0423fe	0.032260887
231	0x3d50c79d	0.050971616
232	0x3cdd7534	0.027033426
233	0xbc628232	-0.013824986
234	0xbc5a98a9	-0.013342061
235	0xbcb2a817	-0.021808667
236	0x3d0d7e5e	0.03454434
237	0x3dee6517	0.11640375
238	0xbcd04b33	-0.025426483
239	0xbcd4dd6d	-0.02598449
240	0x3dd25149	0.1026941
241	0xbcdceed2	-0.026969347
242	0xbc5039b9	-0.012709075
243	0x3d0ccd97	0.034375753
244	0x3d5a78fb	0.053338032
245	0x3d29451c	0.041325673
246	0xbd3a7faa	-0.045531906
247	0xbcb622c1	-0.022233369
248	0x3c6fe722	0.014642509
249	0x3c9fb5a9	0.019495802
250	0x3c75fb1f	0.015013485
251	0x3ce35989	0.027752655
252	0xbb53a896	-0.003229653
253	0x3e1d91b2	0.1538761
254	0x3dbe6e96	0.09298436
255	0xbc77f464	-0.015133951

layers.2.weight f4 [32, 256]
0	0xbd41ea00	-0.0473423
1	0x3d94b552	0.072611466
2	0x3d3c890d	0.04602914
3	0xbd4b3034	-0.049606517
4	0x3c1f5b54	0.009726364
5	0xbdc23bf9	-0.09484095
6	0x3c6856dd	0.014180866
7	0xbdccb51d	-0.09995482
8	0x3dec0c21	0.11525751
9	0x3d62c7c5	0.055366296
10	0x3d8028ab	0.06257757
11	0xbcf6fe7d	-0.030150646
12	0x3d27b617	0.04094514
13	0x3c3f3daa	0.011672417
14	0x3d8c738c	0.06857976
15	0xbd143271	-0.036180917
16	0xbbd4494a	-0.0064784633
17	0x3de705b7	0.11280387
18	0x3d162591	0.03665692
19	0x3d617d7d	0.055051316
20	0x3dfe8107	0.12426954
21	0xbddbadd1	-0.10726512
22	0xbc07b5ac	-0.00828306
23	0x3d07f501	0.03319264
24	0x3d2c93f4	0.042133287
25	0x3be3ebb4	0.0069555882
26	0xbcda5b2b	-0.0266548
27	0x3dc31b89	0.09526736
28	0x3d6dc2af	0.058046993
29	0xbc72e3dd	-0.014824835
30	0xbcd9ef08	-0.026603237
31	0x3d855726	0.06510763
32	0xbb296058	-0.002584478
33	0xbd4d1e16	-0.05007752
34	0x3b87b8b3	0.004141891
35	0x3e3a0379	0.18165387
36	0x3de48261	0.1115768
37	0x3e859a06	0.26094073
38	0x3db9ada6	0.09066324
39	0xbd982c61	-0.074303396
40	0xbcf128b8	-0.029438362
41	0xbcf63df1	-0.030058833
42	0xb9ab9e44	-0.0003273358
43	0x3d268072	0.04064984
44	0x3df2c77f	0.11854457
45	0x3d666b2c	0.05625455
46	0xbdbaf038	-0.09127849
47	0x3d3df5a9	0.046376858
48	0xbc7b35dd	-0.015332666
49	0xbd9c65c0	-0.07636595
50	0x3da85072	0.08218469
51	0x3d94585f	0.07243418
52	0xbda1d548	-0.07902008
53	0xbcba0c82	-0.022711042
54	0x3c28c96c	0.010301929
55	0x3d2c7f6e	0.042113714
56	0xbc392939	-0.011301332
57	0xbcf955e8	-0.030436471
58	0xbcdb01d2	-0.026734266
59	0xbd41a1ab	-0.04727332
60	0xbd6c5e42	-0.05770708
61	0x3b9e9d77	0.0048405486
62	0x3ba7a09e	0.0051155826
63	0x3ddbe099	0.10736198
64	0x3daf9a56	0.08574359
65	0xbbe1ab8e	-0.006886906
66	0x3cd84d7f	0.02640414
67	0x3db1d02a	0.08682282
68	0x3d63fe36	0.055662356
69	0xbc89f5dc	-0.016840868
70	0x3dcebdeb	0.10094818
71	0x3d911c07	0.07085424
72	0xbd1fac86	-0.03898289
73	0xbd55752e	-0.052113704
74	0xbd43bd81	-0.047788147
75	0x3e0b415d	0.13599153
76	0x3dd22aa7	0.102620415
77	0x3c1dcab0	0.009630844
78	0x3d806b74	0.06270495
79	0xbd80bef3	-0.06286421
80	0xbde81c22	-0.11333491
81	0xbdd89071	-0.10574425
82	0x3d8140c7	0.063111834
83	0xbc9f05fb	-0.019412031
84	0xbc35b792	-0.01109113
85	0x3d1fe6e3	0.03903855
86	0x3dd9c818	0.10633868
87	0x3d093609	0.033498798
88	0xbd1cbdab	-0.03826682
89	0xbd4564b7	-0.048191752
90	0x3cd68d5c	0.026190452
91	0xbcc11cc4	-0.023573287
92	0xbd1fd664	-0.03902282
93	0x3c694288	0.014237054
94	0xbd354f76	-0.044265233
95	0x3db32049	0.08746392
96	0xbcc60e2e	-0.024176683
97	0xbdf13019	-0.11776752
98	0x3de27ae6	0.11058597
99	0xbdb5fa73	-0.0888566
100	0x3e120eed	0.14263506
101	0x3d9268a2	0.071488634
102	0xbd8f1d2a	-0.069879845
103	0xbca002b2	-0.019532535
104	0x3d9e6e43	0.077358745
105	0xbcb6ce94	-0.022315301
106	0xbd8d7319	-0.06906719
107	0xbdb70cdf	-0.08938002
108	0x3dd28efe	0.1028118
109	0xbc7d6f5f	-0.0154684475
110	0xbd9ca46f	-0.07648551
111	0x3d3a2a23	0.04545034
112	0x3b89c41d	0.0042042867
113	0x3db4baf5	0.08824722
114	0xbd38ebe8	-0.045146853
115	0x3e1b2596	0.15151057
116	0xbc921d20	-0.017836154
117	0xbd43405a	-0.047668792
118	0x3bde3700	0.006781459
119	0x3e1a2ad1	0.15055396
120	0xbb8cf62d	-0.0043018074
121	0x3de5fb2e	0.11229549
122	0x3d207399	0.039172743
123	0xbca9d5b2	-0.02073178
124	0x3d529d6c	0.05141966
125	0xbdcba7ef	-0.0994414
126	0x3dcb6321	0.09931017
127	0xbd27ce0f	-0.040967997
128	0xbd440f1b	-0.04786597
129	0xbe098951	-0.13431288
130	0xbdcc73a0	-0.09982991
131	0xbda6dd4c	-0.08147678
132	0x3d210f16	0.039321028
133	0x3d2a10c3	0.04151989
134	0x3da9c335	0.08289186
135	0xbd5e9a8c	-0.054346606
136	0xbb9f605b	-0.0048637814
137	0x3c7004d8	0.014649592
138	0xbd2d0efd	-0.042250622
139	0xbcb8c46a	-0.022554595
140	0xbd1738b0	-0.036919296
141	0xbd18f93d	-0.037347067
142	0x3dd62089	0.10455424
143	0x3d40cdc1	0.047071222
144	0x3d991840	0.074753284
145	0x3d7ffedf	0.062498923
146	0x3e00a5bb	0.12563221
147	0x3d99b032	0.0750431
148	0xbc9463e9	-0.018114047
149	0xbcbb4546	-0.02286018
150	0x3e055d3f	0.13023852
151	0xbc47dd4b	-0.012198756
152	0x3c3b457f	0.011430143
153	0x3d56ff39	0.052489493
154	0x3c677a2d	0.01412825
155	0x3d6bffb4	0.057616904
156	0xbc8d6d15	-0.017263928
157	0xbc5090d9	-0.012729847
158	0xbd0fbd14	-0.03509243
159	0x3d80c896	0.06288259
160	0x3ce25ea4	0.027633019
161	0x3dd8c742	0.105848804
162	0xbdf88f1e	-0.121366724
163	0x3dcb7ef5	0.099363245
164	0x3de95053	0.11392274
165	0xbc8adbd5	-0.016950527
166	0x3b509827	0.003182897
167	0xbc85d72d	-0.016337955
168	0xbdddc949	-0.10829408
169	0x3d1a49a5	0.03766789
170	0xbb5ea17e	-0.0033970769
171	0x3deee796	0.11665265
172	0x3cbe00d4	0.023193754
173	0x3d52aca0	0.05143416
174	0x3cb08279	0.02154659
175	0x3cd2fea7	0.025756193
176	0x3e29d6a0	0.16585779
177	0xbcfe6aa6	-0.031056713
178	0x3c5827bc	0.013193067
179	0xbca0a035	-0.019607643
180	0x3c1d991a	0.009619022
181	0xbdd3a3f8	-0.10334009
182	0xbc152b35	-0.00910454
183	0x3caa4582	0.020785097
184	0xbcbd8b32	-0.023137663
185	0x3d6fcdd5	0.058545906
186	0xbdd53e15	-0.10412232
187	0xbd02f33f	-0.03197026
188	0x3b5344c4	0.0032237032
189	0x3e194180	0.14966393
190	0xbd90cb97	-0.07070082
191	0x3c86b90f	0.016445665
192	0x3dba2cc1	0.090905674
193	0x3c782b12	0.0151469875
194	0xbc196c95	-0.009364267
195	0x3d8c301e	0.06845115
196	0xbcff733d	-0.03118288
197	0xbe332975	-0.17496283
198	0x3b4fa9e2	0.0031686951
199	0x3dccdf47	0.10003524
200	0x3d653176	0.055955373
201	0x3cd26b0d	0.025685811
202	0xbbe47c9c	-0.0069728624
203	0xbd511f5f	-0.05105531
204	0x3dd5f104	0.10446361
205	0xbdeed1e4	-0.11661127
206	0xbd93ba92	-0.0721332
207	0xbd21a2f7	-0.039462056
208	0xbc8eaf29	-0.017417507
209	0xbd5806e7	-0.052740958
210	0x3ce62a28	0.028096274
211	0xbd8307d4	-0.063979775
212	0xbd4d7221	-0.05015767
213	0xbe1f3345	-0.15546902
214	0xbcd070f3	-0.025444483
215	0x3d067278	0.03282401
216	0x3e11a6b1	0.14223744
217	0xbd53c3a4	-0.05170025
218	0x3cdddebb	0.027083745
219	0xbd3c6faf	-0.046004947
220	0x3de0f1f8	0.10983652
221	0x3c9d6577	0.019213421
222	0xbd2d3cd8	-0.042294353
223	0xbc05a53a	-0.008157069
224	0xbd54c6ea	-0.05194751
225	0x3d20c9c6	0.039254926
226	0x3d0ce726	0.034400128
227	0x3dda3a6a	0.10655673
228	0x3dd878d3	0.105699204
229	0x3d700d6b	0.058606546
230	0xbd1d8c99	-0.038464162
231	0x3dd3f63d	0.103497006
232	0xbd2b6c9a	-0.041851617
233	0xbce83d17	-0.028349442
234	0xbd2fac34	-0.042888835
235	0x3d125931	0.03572959
236	0x3dba6dea	0.09102996
237	0xbcb31ca3	-0.021864241
238	0xbbe1cc79	-0.00689083
239	0x3d67cf5a	0.05659423
240	0x3da0bb45	0.07848219
241	0xbd4ae7d9	-0.049537513
242	0x3de500df	0.11181807
243	0x3cda62af	0.026658384
244	0x3d9a35bf	0.075297825
245	0xbb1d7da2	-0.0024031182
246	0x3da8b25a	0.08237143
247	0x3d149727	0.036276963
248	0xbd830005	-0.06396488
249	0xbd18d420	-0.037311673
250	0xbce65695	-0.028117457
251	0x3e180e43	0.1484919
252	0x3e061c4f	0.13096736
253	0xbd01207a	-0.031525113
254	0x3e02b974	0.12766057
255	0xbc859f21	-0.01631123

layers.2.bias f4 [32]
0	0x3e594fb6	0.21221814
1	0x3e5833c9	0.21113504
2	0xbd66ef34	-0.056380466
3	0xbcf73ac0	-0.030179381
4	0xbd82ae41	-0.063808925
5	0xbe09b9ae	-0.13449737
6	0x3d4098ac	0.0470206
7	0x3de38781	0.1110983
8	0x3e4518af	0.19247697
9	0x3d96b6a9	0.073590584
10	0x3e81a46e	0.25320762
11	0x3eb6c01a	0.35693437
12	0x3e55a45a	0.20863476
13	0x3b8df5f7	0.0043323
14	0xbd6e2a29	-0.058145676
15	0x3e28a094	0.16467506
16	0xbc15fb3b	-0.009154136
17	0xbd17a682	-0.03702403
18	0xbcef857e	-0.029238459
19	0xbe6c8634	-0.2309807
20	0xbd9264e4	-0.071481496
21	0x3ddf90a6	0.109162614
22	0x3d0e2893	0.034706663
23	0x3cec7e03	0.02886868
24	0xbe562238	-0.20911491
25	0x3bb5a98a	0.0055438923
26	0xbdf59dab	-0.119929634
27	0x3df925e6	0.12165432
28	0x3db26aab	0.087117516
29	0xbeb605b2	-0.3555122
30	0x3d0af2e2	0.033923037
31	0xbd383ce0	-0.04497993

layers.4.weight f4 [10, 32]
0	0x3edd73f5	0.4325253
1	0xbeb7bc72	-0.3588596
2	0xbefaa53b	-0.48954186
3	0xbe81f4f2	-0.2538219
4	0xbdeb59c3	-0.1149173
5	0x3e6a2417	0.2286533
6	0xbe82597a	-0.2545889
7	0xbe8aae0a	-0.27085906
8	0xbe72a3a3	-0.23695235
9	0x3eafc568	0.34330297
10	0x3efadcc3	0.48996553
11	0x3e756f96	0.23968348
12	0xbd3a01b7	-0.04541179
13	0x3c829dab	0.015944323
14	0xbb3b933a	-0.002862169
15	0x3ea89f71	0.32934144
16	0x3e8314cd	0.25601807
17	0x3e2f2b8a	0.17106453
18	0xbe24ae6e	-0.16082165
19	0x3e3f1531	0.18660428
20	0xbdcb778a	-0.0993491
21	0x3ead34f6	0.33829468
22	0x3d7c1f9a	0.061553575
23	0xbddcf22b	-0.107883774
24	0x3e937c03	0.2880555
25	0xbdc66599	-0.09687347
26	0x3e3a6bb7	0.18205152
27	0x3dcef770	0.10105789
28	0xbec5f06a	-0.38659984
29	0xbe83e4f5	-0.25760618
30	0xbe1428f3	-0.14468746
31	0x3d976dd7	0.07393997
32	0xbd6dfbd8	-0.058101505
33	0xbe18952d	-0.14900656
34	0xbf0e5061	-0.555914
35	0x3ea80d87	0.3282282
36	0x3dd8f915	0.105943836
37	0x3cbb15f0	0.022837609
38	0x3eb658dc	0.3561467
39	0xbe8c848d	-0.27444878
40	0xbec6e094	-0.38843215
41	0x3e234614	0.15944701
42	0xbf174937	-0.5909609
43	0xbeb70756	-0.35747784
44	0xbe5e404f	-0.2170422
45	0xbe05673f	-0.13027667
46	0xbcd7a317	-0.026322884
47	0x3f12ed29	0.5739313
48	0x3f21a1b2	0.6313735
49	0xbee29918	-0.44257426
50	0x3e049a28	0.12949431
51	0x3ab947b2	0.0014135747
52	0x3dba60e7	0.09100514
53	0xbd0a58dc	-0.03377615
54	0xbce2eb33	-0.027700042
55	0x3da5c048	0.08093315
56	0xbea46ca3	-0.32114133
57	0xbd94a1ff	-0.07257461
58	0x3ef73a79	0.482868
59	0xbe50c259	-0.20386638
60	0x3ec0def5	0.37670103
61	0xbe434fac	-0.19073361
62	0xbf063438	-0.5242343
63	0xbe2b18ba	-0.16708651
64	0x3e954c00	0.29159546
65	0xbe1b057a	-0.15138808
66	0x3e7626e6	0.24038276
67	0x3d0d10b2	0.03443975
68	0x3e15f51d	0.14644285
69	0x3efa612d	0.48902264
70	0x3ebbe42a	0.36697513
71	0xbea2d8f6	-0.31806153
72	0xbe751089	-0.23932089
73	0x3ea78933	0.32721862
74	0xbe9a0cd5	-0.30087915
75	0x3b70e3b1	0.0036756808
76	0x3cd41271	0.0258877
77	0x3d93fdb8	0.072261274
78	0x3bd0e431	0.006374859
79	0x3ea072d1	0.31337598
80	0xbd3e70c1	-0.04649425
81	0xbd22b27a	-0.03972099
82	0x3e970a88	0.29500222
83	0xbed91fb6	-0.42407006
84	0x3dc7b7c5	0.09751848
85	0x3e8431f0	0.2581935
86	0x3e029acb	0.12754361
87	0xbe10e0e2	-0.14148286
88	0xbe5d180a	-0.21591201
89	0x3c86c48b	0.01645114
90	0xbe1846f5	-0.14870818
91	0xbe33417a	-0.17505446
92	0xbeb31f1b	-0.3498467
93	0x3ec2d6ce	0.38054508
94	0x3e1e42f0	0.15455222
95	0x3d92fa5f	0.07176661
96	0xbe9ba6b0	-0.3040061
97	0xbe6eaf88	-0.23309147
98	0x3de103f2	0.10987081
99	0x3eacd92f	0.33759448
100	0xbc27aee0	-0.010234565
101	0xbe5427cc	-0.20718306
102	0x3f14eb16	0.5817121
103	0xbd90eaeb	-0.07076057
104	0xbdb251cf	-0.0870701
105	0xbec48c9b	-0.38388523
106	0x3df6721d	0.12033484
107	0x3eb9043c	0.36136043
108	0xbe1ee54c	-0.15517157
109	0xbe20becb	-0.15697782
110	0x3bbb2ae4	0.0057119
111	0x3ea9ea72	0.3318668
112	0x3d56370d	0.052298594
113	0x3eefd839	0.46844652
114	0xbe6eeb99	-0.23332061
115	0xbf1739d3	-0.5907261
116	0x3d8ebb4a	0.06969316
117	0xbe36772f	-0.17818902
118	0xbdcde28b	-0.10052975
119	0xbe8d6b6a	-0.27621013
120	0xbde1194d	-0.10991154
121	0x3ce86029	0.028366165
122	0x3e8d71b0	0.276258
123	0xbce0f493	-0.027460372
124	0xbe8ab170	-0.270885
125	0xbe79bf0a	-0.24389282
126	0x3e9d884a	0.30768043
127	0x3e338b60	0.17533636
128	0xbdb6d65a	-0.08927603
129	0x3e4f3f59	0.20239009
130	0x3edc2685	0.42998138
131	0x3ea20bb5	0.31649557
132	0xbd56a9ab	-0.0524079
133	0x3e7db8b5	0.24777491
134	0xbd49f188	-0.049302608
135	0x3e0d64ea	0.13808027
136	0xbecd90b2	-0.40149456
137	0xbe7f3e5f	-0.24926136
138	0x3e796dbd	0.24358268
139	0xbf13d343	-0.57744235
140	0xbf0e274d	-0.5552872
141	0xbe2ca3f6	-0.16859421
142	0x3da17437	0.07883494
143	0x3eb81369	0.3595231
144	0x3cf4ea8c	0.029896997
145	0xbebd5565	-0.36979213
146	0x3d709a8a	0.05874113
147	0x3d058647	0.03259876
148	0x3d9be3d9	0.07611818
149	0xbea225fa	-0.316696
150	0xbda52b83	-0.0806494
151	0xbe1dc7e6	-0.15408286
152	0x3e6df6a6	0.2323862
153	0x3d16cf22	0.03681863
154	0x3c46d1a6	0.012134945
155	0xbd99b3f4	-0.075050265
156	0x3e9f8e38	0.31163192
157	0x3f0042e7	0.50102085
158	0x3e591f38	0.21203315
159	0x3e126a47	0.14298354
160	0x3eb8d9e3	0.36103734
161	0x3f56ed21	0.8395558
162	0x3ed7bfaa	0.42138416
163	0x3d90fcd8	0.07079476
164	0xbdf30cc2	-0.11867668
165	0xbf3eda41	-0.7455178
166	0xbe81af02	-0.25328833
167	0xbe258baf	-0.16166566
168	0x3f063a95	0.5243314
169	0xbb21397d	-0.0024600916
170	0x3e8ed15d	0.27894107
171	0x3d813e74	0.0631074
172	0x3f4afc5a	0.7929131
173	0xbda2d946	-0.07951598
174	0xbd3c3dc3	-0.045957338
175	0xbe2eb282	-0.17060283
176	0xbe9e737a	-0.30947477
177	0xbed00b30	-0.40633535
178	0x3d058b49	0.032603536
179	0xbe9288d8	-0.28620028
180	0xbdbeed67	-0.09322625
181	0x3dd07228	0.101780236
182	0x3d4628fe	0.048378937
183	0x3ddf9e84	0.10918906
184	0xbf1dbb14	-0.61613584
185	0xbe1350b7	-0.14386259
186	0xbf42a62d	-0.76034814
187	0x3dd15847	0.10221916
188	0x3ddf77bd	0.1091151
189	0xbf12823b	-0.57229966
190	0x3cd19bcb	0.025586983
191	0x3de6faad	0.11278281
192	0xbe46aa4d	-0.19400902
193	0xbd942f2a	-0.07235558
194	0xbe7b58df	-0.2454562
195	0xbd2143a0	-0.039371133
196	0x3cae84b0	0.021303505
197	0x3f347982	0.70497906
198	0xbdc6dd39	-0.097101636
199	0x3f018862	0.5059873
200	0xbeedcbc2	-0.46444517
201	0x3d285e83	0.04110576
202	0x3e8a5db3	0.27024612
203	0x3ec32eef	0.38121745
204	0xbde5f90c	-0.112291425
205	0x3b85d5d9	0.0040843305
206	0xbdd1bfa3	-0.1024163
207	0x3e8801c2	0.2656384
208	0xbee80ddd	-0.45323077
209	0x3c4c3ad0	0.012465194
210	0x3ddbf40f	0.1073991
211	0x3e50166c	0.20321053
212	0x3dd73a25	0.10509137
213	0x3d432675	0.047644097
214	0xbe59b3e8	-0.21260035
215	0xbcfe9ea7	-0.03108151
216	0x3edf4dbd	0.43613997
217	0x3b7907bc	0.0037998995
218	0xbedd2809	-0.43194607
219	0x3f085866	0.53259885
220	0xbdcbe462	-0.0995567
221	0xbe823546	-0.2543127
222	0x3f0dc04a	0.55371535
223	0xbdf18b86	-0.1179419
224	0xbeb66d4b	-0.3563026
225	0xbe9293d5	-0.28628412
226	0xbeb5beab	-0.3549703
227	0x3d2160bd	0.039398897
228	0x3d9b836f	0.07593428
229	0xbf17abda	-0.592466
230	0xbefd50ff	-0.49475858
231	0x3efb1c02	0.49044806
232	0x3f14a072	0.5805732
233	0x3e0857ce	0.13314745
234	0xbe2ccb2a	-0.16874376
235	0x3f0c2442	0.54742825
236	0x3e464e3d	0.19365783
237	0xbe13200f	-0.14367698
238	0xbe1a32fe	-0.15058514
239	0xbf18f48d	-0.59748155
240	0xbe65a7f0	-0.22427344
241	0x3e000767	0.12502824
242	0xbe938e4a	-0.28819495
243	0x3e8c2f0c	0.27379644
244	0xbde95f1a	-0.11395092
245	0xbeb9a000	-0.36254883
246	0x3e4eec08	0.20207226
247	0xbe42992f	-0.19003747
248	0x3d2d08a1	0.042244557
249	0xbddb3037	-0.107025556
250	0x3ead8469	0.33890083
251	0x3d03ae62	0.032148726
252	0x3f47b9e1	0.78018004
253	0x3cb7884f	0.022403864
254	0xbedc4a80	-0.4302559
255	0x3ddf3420	0.10898614

layers.4.bias f4 [10]
0	0x3e7b49f0	0.24539924
1	0x3c90315d	0.017601663
2	0xbd1b48e7	-0.037911322
3	0x3db77b24	0.08959034
4	0xbeb03893	-0.34418163
5	0x3f4ed2d6	0.8079046
6	0x3e860553	0.26175937
7	0x3e00ba97	0.12571178
8	0xbecc563b	-0.3990954
9	0xbf097d40	-0.5370674
