CNN/fashion_model.pth (torch, 978002 bytes, 22 tensors)

conv1.weight f4 [32, 1, 3, 3]
00000000: cab7 62be 9dad 57bd b51b 8e3e 05a1 0fbe
00000010: d107 913e b0a6 1d3d 9d61 8cbe 45ff c93e
00000020: d32f 95be 1ce5 7abe 349d acbe 5bf5 333e
00000030: 4171 08be 4e50 adbd db64 88be 9920 4f3e
00000040: 0bd9 96bd 954a d93c 7e82 4cbe 51cf 7b3e
00000050: 457f ca3d d930 0ebe b4e0 c7bd 54f3 853e
00000060: c648 6bbe 7041 bfbc c26e c0bd 4227 c5bd
00000070: d691 4cbd a766 d6bd 0544 88be 4e1b 7bbe
00000080: a82d 443e e679 0cbe cd6b 37be cf08 5bbe
00000090: 2c29 b6be d225 0b3e 5cdf babd d2e5 813d
000000a0: 0975 03be 4b33 623e fc1c afbc 2a4b 293e
000000b0: 9c86 753d a4b9 97be 6a12 f23d 4138 81be
000000c0: f34b 8d3e 47b9 703e a30b 553e 173f 9d3d
000000d0: 26b8 7d3e 063c 0a3e e66f 243e 890b 67bd
000000e0: c9e3 153e 0fd2 39be d1d0 93be 9f70 83be
000000f0: 5220 d1bd f0bc 68bd 5a88 9d3d 3a2c 4bbe
00000100: c253 67be ae29 a9bd 75a4 66be 12dd 31be
00000110: 22e1 8bbe 799c 633e 0d71 8e3d f6ad 863e
00000120: e74a 4ebe a7fb cb3d f856 78be 6217 a93e
00000130: 1f41 a5be 74d8 b73d 5bb6 583d dd66 c73d
00000140: ac53 5ebe 941e acbc 09cf dabd 5ba2 113e
00000150: 300a d83d 6d9e 8f3e 06f4 7ebe f117 013e
00000160: 85c0 64be a89b 2e3e ba7f 97be e042 64be
00000170: 8517 5b3c 7082 3dbe bac3 4bbd f567 54be
00000180: d7e5 d4bd 11e3 fc3d 1eb8 7c3e b9c7 0abc
00000190: 1568 283e fe76 913c 12ed 66be 270e 7f3e
000001a0: 6214 e2bc aa95 b1be 470e 993e 520a b13c
000001b0: 43e8 edbd 0612 a83e 628d 4abe fdb3 8d3e
000001c0: 19e3 0e3c 3ba4 9fbe 6794 cb3b 2411 27be
000001d0: 6bb9 313e 1e5e 58be 3a64 d53d b256 e4bd
000001e0: fc37 8d3d 0971 b53b d538 7abe b334 093d
000001f0: 80dc 70be bcfd a4bd cf3c 943d 071e dcbd
00000200: 9488 cdbd a6f1 73bd a570 843e abc6 d13d
00000210: df9a ed3c c95c 623e 0d46 a53e 1a0a d53c
00000220: 6481 073e 87cb d6bd d4ff fcbd 15c9 13bd
00000230: abc2 273e e519 b6be e23e 6a3e 6d3b a83d
00000240: 4ec0 9b3d 54cb 643e 2365 4fbe 5fcc dd3b
00000250: 48f1 86bd 6596 31bd 6ffe 093e 2098 143e
00000260: b3ae 1f3d 1293 98be 0bcc 18be cc24 373e
00000270: e5ac 6bbe 3187 c6bd f20d 713e 5e7f a9be
00000280: e727 78bd 83a3 933e e359 6fbe cce8 14be
00000290: f1fa 94be 5930 0f3d 628f 9abd a3bd b63d
000002a0: 4adc 0cbd 8ca4 54bd 2729 283d d2eb 7b3d
000002b0: b9d1 41bc 34d2 d5bc 6f3a 353e 116b 263e
000002c0: 83d7 44be ebde 63be 55ae 873e 3ebd 133e
000002d0: 22e1 2bbe b9e1 ef3d 1b0e c23d 851d 1bbe
000002e0: a9a0 7b3e 939e 973e 822b d53d d2ec 84bd
000002f0: c0aa 7bbd 0e93 2ebe 6e9c 56be 1bf3 303e
00000300: 3cba 373e dcef bdbd 28f5 7a3e a72d bfbc
00000310: cbdb 23be 0647 babc a435 363e de7d 973e
00000320: 33b3 433e 8380 37bd f93b 573d 4861 ee3c
00000330: bee4 76be 77ae c3bd 0465 ad3d 92ee 893d
00000340: df3d 1ebe c715 293e 9f0c 943e f47b 5abe
00000350: 9751 803e 55a8 893e ec20 a9bd 450f 66bd
00000360: 736c ebbd e3f4 773e c65e 823e 148a d73d
00000370: 601f 203e f5d8 153e fb69 99be 6a86 a6be
00000380: 320d 81be 5391 813e 3e8a c83c 46e8 9ebd
00000390: 0ae1 8bbe 1073 9f3e 8efa 1cbc 426d 9c3e
000003a0: f731 743d 2f29 293d 226b b9bd c7ff 843e
000003b0: c5d4 263e 48b8 ea3d f6d4 a43e 847d a9be
000003c0: b7a2 8a3e 95f0 ee3d ff39 1fbd 832f 483e
000003d0: ec92 883d 59d0 bbbd efb9 213e 0a90 53be
000003e0: f876 72be f894 95be 89b1 0ebe 8ef7 90be
000003f0: 748f 80be 399c 543e 9d04 b5bd 7ecc 1fbe
-0.22140422 -0.052655805 0.27755514 -0.14026268 0.28326276 0.038489044 -0.27418223 0.39452568
-0.2913805 -0.24501461 -0.33713686 0.17574064 -0.13324453 -0.084625825 -0.26639447 0.20227279
-0.073656164 0.026524821 -0.19971654 0.24590804 0.09887556 -0.13885821 -0.097596556 0.26162207
-0.2297698 -0.023346633 -0.093961254 -0.096266285 -0.049943767 -0.10468798 -0.26614395 -0.24522135
0.19158041 -0.13718376 -0.17912216 -0.21390079 -0.35578287 0.13588646 -0.09124634 0.06342663
-0.12837614 0.22089879 -0.021376126 0.16532579 0.059942827 -0.2963382 0.118199185 -0.2523823
0.27597007 0.23508178 0.2080522 0.07678049 0.24777278 0.1349946 0.16058311 -0.056407485
0.14637674 -0.18146537 -0.28870252 -0.2567186 -0.10211243 -0.05682081 0.076920226 -0.1984109
-0.22590545 -0.08259903 -0.22523673 -0.17369488 -0.273202 0.22227658 0.069551565 0.26304597
-0.2014576 0.09960108 -0.24251926 0.33025652 -0.32276246 0.08976832 0.052908283 0.097364165
-0.21711606 -0.021010675 -0.1068402 0.1422209 0.10548818 0.28050557 -0.24897775 0.12606789
-0.22339065 0.17051566 -0.29589635 -0.22291136 0.013372307 -0.18506789 -0.049747206 -0.20742781
-0.10395401 0.12347997 0.2467961 -0.008470469 0.16445954 0.017756935 -0.22551373 0.24907742
-0.02759761 -0.34684497 0.29893705 0.021611366 -0.11616566 0.3282625 -0.19780496 0.27676383
0.0087211365 -0.31179985 0.0062127593 -0.16315132 0.17355888 -0.21129653 0.10419507 -0.11149348
0.06895444 0.0055371565 -0.24435742 0.033497524 -0.23521614 -0.080562085 0.07238161 -0.10747915
-0.10035816 -0.059556626 0.2586719 0.10242971 0.029004512 0.22105707 0.32280007 0.026005793
0.13232952 -0.104880385 -0.12353483 -0.03608044 0.16382854 -0.3556663 0.2287555 0.082144596
0.076050386 0.22343189 -0.20253424 0.0067687477 -0.065889895 -0.043356318 0.13475965 0.14511156
0.038984966 -0.29799706 -0.14921586 0.1788513 -0.23015173 -0.096937545 0.23540476 -0.33104986
-0.06058493 0.28835687 -0.23374133 -0.1454193 -0.29097703 0.034958217 -0.07546879 0.08922889
-0.03438977 -0.051914737 0.04105487 0.061504193 -0.011829787 -0.02610121 0.17698072 0.1625178
-0.19222836 -0.22253005 0.26500192 0.14427659 -0.167851 0.11712975 0.09475347 -0.1514798
0.24573006 0.2961317 0.10408689 -0.064904824 -0.061442137 -0.17048284 -0.2095811 0.17280237
0.17942137 -0.09274265 0.24507582 -0.023337198 -0.16001813 -0.022738945 0.177939 0.29588217
0.19111328 -0.044800293 0.05254743 0.029099122 -0.24110696 -0.09554761 0.08466533 0.06734957
-0.1545329 0.16512214 0.2891588 -0.21336347 0.25062248 0.2688624 -0.082582325 -0.056166906
-0.114952944 0.2421451 0.2546293 0.10524383 0.15636969 0.14633544 -0.2996367 -0.32524425
-0.2520538 0.25306186 0.024479982 -0.077591464 -0.2732013 0.31142473 -0.009581221 0.30552107
0.059617963 0.04129904 -0.09053637 0.25976393 0.16292103 0.1146093 0.32193726 -0.33103573
0.27077267 0.11666981 -0.03887367 0.19549374 0.06668648 -0.091705985 0.15793584 -0.20660415
-0.23678195 -0.29215217 -0.13934912 -0.2831387 -0.25109446 0.20762719 -0.088387705 -0.15605351

conv1.bias f4 [32]
00000000: 2b8b 8bbc 88e1 543e bfa3 3cbe 7d5d 0f3e
00000010: 7fa2 36be 9892 85be 1773 cf3d 37e0 e13d
00000020: d125 e93d 8e52 4ebe dd90 87be 5ed1 24bd
00000030: 08c2 67bd 9389 59be d090 42be 4487 dbbd
00000040: 6408 7d3e 0b00 cf3d 89bc 943e c804 a83e
00000050: 7aff 9e3e a656 cabd 5af5 67be 5d79 123e
00000060: d58c 27be a280 123e acb3 8e3e 8c1b 273d
00000070: 0adc de3d 0482 41bc 6167 913c 9d0c 363e
-0.017034134 0.20789158 -0.18421839 0.14000507 -0.17835425 -0.26088405 0.101293735 0.11029094
0.11384166 -0.2014868 -0.2647771 -0.04023873 -0.056581527 -0.21243887 -0.19000554 -0.10719159
0.24710232 0.1010743 0.2905009 0.32816148 0.31054288 -0.09879808 -0.22652188 0.14304109
-0.16362317 0.14306882 0.27871454 0.040797755 0.10881813 -0.011810783 0.01774949 0.17778249

bn1.weight f4 [32]
00000000: 380d 813f 3e8c 823f 799e 803f 5a07 813f
00000010: 4cfb 793f 8e83 793f a546 813f f11c 823f
00000020: 8f45 833f be33 7a3f 2377 823f f7e2 7f3f
00000030: c1d7 833f 9e87 813f 8267 7a3f 420f 7e3f
00000040: eceb 783f 751d 843f f597 823f 2609 7d3f
00000050: 7caf 793f aa8a 7e3f cfe5 7a3f 1a0d 7a3f
00000060: 3a13 813f ac91 773f 4d4a 7a3f 16fd 823f
00000070: fd04 823f 64e2 7f3f aad8 7a3f bd21 833f
1.0082159 1.0199049 1.0048362 1.0080369 0.97649074 0.9746636 1.0099684 1.0165082
1.0255603 0.977352 1.0192608 0.99955696 1.0300218 1.0119512 0.9781419 0.9924203
0.9723499 1.032149 1.0202624 0.98842084 0.9753339 0.99430335 0.9800691 0.9767624
1.0083992 0.9670665 0.97769624 1.0233486 1.0157772 0.9995482 0.97986853 1.0244671

bn1.bias f4 [32]
00000000: 4711 ad3c c709 15bd e93c 343b b62c f8bc
00000010: fbfb 663c 8924 8f3c ec4e c3bb 3ed3 d5bc
00000020: 075f 1cbc 143b 553c 214d 21bd 76bc cf3b
00000030: 52e6 8c3c 23e0 eabc 37c0 003c 74f4 5bbb
00000040: 8cce e03b 2182 47bc 3c50 d8bc c2d4 d93a
00000050: 4e36 bc3c fc63 ff3a 5c00 433c bd44 b13c
00000060: 527f b0bc b223 a2bb ae64 913c 2c43 b5bc
00000070: dc98 8cbc bd30 d3bc 488d fa3c f36d 40bc
0.021126403 -0.036386278 0.0027502126 -0.030294757 0.014098163 0.017473476 -0.005960336 -0.026101705
-0.009544141 0.013014574 -0.039380196 0.006339605 0.017199669 -0.02867133 0.007858328 -0.0033562453
0.00686056 -0.012177021 -0.026405446 0.0016619193 0.022975113 0.0019484754 0.011901941 0.021639222
-0.021545086 -0.004948103 0.017748203 -0.022126757 -0.017162733 -0.025780076 0.030584946 -0.011744964

bn1.running_mean f4 [32]
00000000: b9d5 45bc 0072 c2bb d01f 70be cd2b 37be
00000010: 0558 28be d466 2cbd 17ad 7ebd f151 92bd
00000020: b2a4 bf3c 1df5 0bbe badf ecbe 5037 143b
00000030: 9821 65bd c13d d0be 8a1f c93c 5dfa d4bd
00000040: 4c06 ad3e edee 05bd e453 c93d 7e52 dd3e
00000050: 1987 dc3e b7be fdbd 262a c7bd 8fae 983e
00000060: c46c 41be dc4f a73e 6182 013f 8f2b 4dbe
00000070: 2133 c8bd b065 12be da9f 8b3e 53ec 5ebc
-0.012074881 -0.005934 -0.23449636 -0.17887802 -0.16439827 -0.042090252 -0.06217679 -0.07144535
0.023393963 -0.13667722 -0.4626444 0.0022615977 -0.05594024 -0.40672114 0.024551172 -0.103993155
0.33793867 -0.03269856 0.09830454 0.43227 0.4307182 -0.123898916 -0.09724836 0.29820678
-0.18889147 0.32678115 0.5058957 -0.20036148 -0.09775377 -0.14296603 0.27270395 -0.013606149

bn1.running_var f4 [32]
00000000: 4230 7b3c b1c3 813d ffc0 8a3c c10e 013e
00000010: 1976 023c 597a 953d eef9 203d d602 653d
00000020: 6be1 843c 224c d63b f936 783d 6783 833c
00000030: 333b e63b 8b42 403d 5801 823d 0b08 0a3c
00000040: 194c 6d3c fec2 7a3d 539c 463d 85d8 8b3c
00000050: b67b d13c 04e2 003c ee80 033d 6e1c 0a3d
00000060: 4290 b83c d05c 363d 680c 973d 44ec ae3d
00000070: 0e07 583d ebde 033d a3e0 b23d ed46 513d
0.01533133 0.06336153 0.01693773 0.12603284 0.007962727 0.072987266 0.03930085 0.055910908
0.016220769 0.0065398375 0.0605993 0.016053868 0.0070261 0.04693846 0.063479125 0.008424769
0.014483475 0.061221115 0.048488926 0.017071018 0.025571685 0.007866386 0.03210538 0.03371852
0.022529725 0.044522107 0.07375413 0.08541158 0.052741103 0.032195013 0.08734252 0.05109303

conv2.weight f4 [64, 32, 3, 3]
00000000: b928 e43c bc05 61bd 7eb0 003d 6769 75bd
00000010: 8255 003d 163d 7e3d 28a2 ff3b 7988 7d3c
00000020: fdf1 a5bc 3785 2b3d 2fe6 61bb df42 18bd
00000030: 3b01 4e3d c70e a4bc 28be debb 3cca f7bc
00000040: 453b 613d c2bd 39bd e7c5 89bb 701a 2fbd
00000050: 5a54 953c 41a6 b03c 6e17 0fbc 46e5 b63c
00000060: fd82 6b3b e33c 003d 574e 4f3d 7032 bbbb
00000070: 9cf3 b4bb 79fd 843c 7bf2 e03c 791b 593d
00000080: b193 08bc e779 1dbd 3afc 2bbd 52eb bcbc
00000090: 151b 00bd c641 3ebc 89d5 c93c 6f73 3bbd
000000a0: 6aaa 11bc fcfb e8bc 2bf8 583c 776f 98bc
000000b0: c5f2 45bd f266 643d 34e0 e6bc fb59 dd3b
000000c0: 8edd 303c 0ea3 0a3d 02a0 dd3c ca9c af3b
000000d0: a696 98bc a44c 803c d88c e83c 6c4d a5bb
000000e0: 6e83 4a3d 9ada ebb9 ce39 66bc a757 843c
000000f0: ff98 593d ba34 68bc 8f07 703a bc97 0e3a
00000100: a1b9 e7bc f48b a4bc 3907 133d 5c16 29bd
00000110: 9e34 15bc 0af0 0bbd c5eb 863d a9db 4bbd
00000120: cde5 7c3c c6a2 acbc b41a bbbc f9e0 88bc
00000130: 8048 9cb8 8258 cebc 7f61 993d 6a86 483d
00000140: f224 0cbd 9fde 543d 7a81 8c3c 96a9 30bd
00000150: b43a dfbb 0c42 e23c f967 8b3d a3dc 1bbd
00000160: 9f0f 663d 6ca5 603c 9868 813c 6a9a 633d
00000170: 07f8 0d3d de1d 463c f267 f3bc 7996 72bc
00000180: 9adc 4f3d ad37 da3c f275 5ebd 99f2 1b3d
00000190: 75f8 4fbd 4882 2bbd f3b3 23bd 155d dabb
000001a0: ca89 63bd 4587 fb3b cfbe 04bd 82ed e9bc
000001b0: 8436 62bd eff5 283d 2287 c0ba b19c d73c
000001c0: f577 ccbb c531 86bc d9ae 053d 5019 443d
000001d0: 62b3 99ba 9ea2 b3bc 1641 c3bc 2c5a 26bd
000001e0: 984c 0a3d dbb0 643c dc2c d9bc 1e90 27bd
000001f0: 047f e13c eeed 79bc c728 453d 4a31 bcbb
00000200: 33c1 59bc 6145 823d 4f2e 633d 3882 f03c
00000210: abf9 53bd edfe 4fbd e3e5 403d e255 e33c
00000220: 5c14 373c 9099 55bd a00a dfbc e3d1 c93a
00000230: 1b9f 163c bd5a 18bd e3c4 19bd 756b 14bd
00000240: 775e 1f3c 5cb2 f3bc f493 283d 75f3 4ebc
00000250: 7e4f 413d ab42 323d b1b4 1dbd 9eb6 eabc
00000260: ea18 46bd c118 6abb bbb4 353d ce9c 373d
00000270: 7df0 f2bc 1e31 813c d8ae 0b3c e395 5f3d
00000280: de35 343d 663b 893a 22e0 4dbc a1d7 6b3d
00000290: 9d7b 2ebb 91f4 6a3d 78aa 593d e6aa b03c
000002a0: 712c d8bc a2f2 f03b c168 fa3c d55a 17bd
000002b0: 702a 3a3b 18fe 59bc bc4c 0abd 8551 14bc
000002c0: 0271 703d 24f1 6c3d 892d 2abd 4d68 133d
000002d0: c9fd c93c 24d2 cd3c f746 f3bc 7db0 c73b
000002e0: 6f1b ccbc b36f 003d 03b6 3abd aa8d 3c3d
000002f0: 28d5 833b ab2c 38bd 26c5 77bd 524b 50bd
00000300: 1889 bcbc b087 213d 0cff b0bc a725 94bc
00000310: 3f7e 5c3c 2560 493d 00af b9bc c011 a63c
00000320: e090 86bd 015d c7bc b65f 53bd 9ba1 0ebd
00000330: d10a 5bbd 5811 dfbc 7b37 073d 31d5 6a3d
00000340: 4d8c 35bc a69c b1bc b031 17bd 3943 a43c
00000350: fd28 253d 8fb9 0b3d 1b2c cd3c 551b 3cbd
00000360: 9601 00bc fb14 5fbd d269 c9bc 3d25 683c
00000370: 3133 493d 904c 99b9 a4f5 82ba 41b8 f0bc
00000380: ea54 80bb aa67 9b3c 830d 683d 08aa cfbc
00000390: fe7c cbbc 4951 4bbd 4022 dc3b 20d8 15bd
000003a0: da7b 4d3d 34eb 98bc ddb0 78bd 33d0 23bd
000003b0: a2f9 7cbc b7aa 033d 1bfd 0bbd 4f5d 2c3d
000003c0: 449c a2bc 04d2 a8bc 7c83 3ebd 0608 0fbd
000003d0: b8b3 133c e0ed 873c f823 9cbc da16 3a3d
000003e0: 9abb 4ebd 0c5e 70bc e2a7 2cbd 1dad 3ebd
000003f0: 79f4 383d e12e 493d 33f1 103d 34b5 563d
0.02785145 -0.05493711 0.031418316 -0.059914973 0.031331547 0.062069975 0.007801313 0.015474432
-0.02025699 0.04187509 -0.0034469476 -0.03717315 0.050294142 -0.020026578 -0.0067975707 -0.0302478
0.054988164 -0.045346983 -0.0042045 -0.042749822 0.018228699 0.021563651 -0.008733613 0.022326123
0.003593623 0.031308066 0.05061182 -0.0057127997 -0.0055222046 0.016234146 0.027459374 0.053004716
-0.008335994 -0.038446333 -0.04198859 -0.023061428 -0.031275827 -0.011612361 0.024637954 -0.045764383
-0.008890728 -0.028440468 0.013242762 -0.018607838 -0.048327226 0.05576224 -0.02818308 0.0067551113
0.01079501 0.033846907 0.027053837 0.005359267 -0.018626522 0.015661545 0.028387472 -0.00504463
0.049441747 -0.00044985564 -0.014051868 0.016155077 0.053124424 -0.014172727 0.00091564 0.00054394803
-0.028286757 -0.020086266 0.03589556 -0.04128109 -0.009106783 -0.034164466 0.06587938 -0.04977003
0.015435648 -0.02107371 -0.022839881 -0.016708838 -7.452164e-05 -0.025188688 0.07489299 0.048956312
-0.03421492 0.05197012 0.017151583 -0.04313048 -0.006812418 0.027619384 0.068069406 -0.038052212
0.05616724 0.013711315 0.015796944 0.055567183 0.034660365 0.012092082 -0.02971265 -0.014806383
0.05074749 0.026637876 -0.0543117 0.038073156 -0.050774056 -0.041872293 -0.039966535 -0.0066639283
-0.055551328 0.0076760375 -0.03240853 -0.028555635 -0.05522777 0.041250166 -0.001468871 0.026319833
-0.006239886 -0.016381154 0.03263745 0.047875702 -0.0011726434 -0.021928128 -0.023834746 -0.04061334
0.03376445 0.013958181 -0.026510648 -0.040908925 0.027526386 -0.015254481 0.04813459 -0.0057431804
-0.013290691 0.06360889 0.055464085 0.029358968 -0.051751774 -0.050780226 0.047094237 0.027750913
0.011174288 -0.0521484 -0.027226746 0.0015397634 0.009193207 -0.03719591 -0.03754128 -0.03623529
0.009727112 -0.029748134 0.041156724 -0.012631287 0.04719495 0.04352061 -0.0385024 -0.028651532
-0.048363604 -0.003572032 0.04436181 0.044827275 -0.02965569 0.015770491 0.008525573 0.054586302
0.043996684 0.0010469973 -0.012565644 0.057578687 -0.0026623972 0.057362143 0.053141087 0.021565866
-0.026388379 0.007353143 0.030567529 -0.03695186 0.0028406642 -0.01330521 -0.033764586 -0.009052639
0.058701523 0.057847157 -0.041547332 0.03598814 0.024657147 0.025124617 -0.029696925 0.006094037
-0.024915425 0.031356525 -0.045583736 0.04603354 0.004023213 -0.044964474 -0.06049075 -0.05085308
-0.02301459 0.039436042 -0.02160599 -0.01808436 0.013457834 0.049163956 -0.022666454 0.020272136
-0.065706015 -0.02433634 -0.05160495 -0.034822088 -0.053477112 -0.02722995 0.033011895 0.05733222
-0.011080814 -0.021681141 -0.03691262 0.020051586 0.040322293 0.03411251 0.025045445 -0.045924503
-0.007812878 -0.054463368 -0.024586592 0.014169035 0.049121086 -0.00029239478 -0.000999142 -0.029384734
-0.0039163725 0.01897033 0.05665351 -0.025349632 -0.024839874 -0.049638066 0.00671795 -0.036583066
0.050166942 -0.018666841 -0.060715545 -0.039993476 -0.0154403765 0.03214523 -0.034176927 0.042081174
-0.019849904 -0.020607956 -0.046512112 -0.03491976 0.009015016 0.01659292 -0.01906012 0.04543195
-0.05047188 -0.01467086 -0.042152293 -0.046551812 0.045155022 0.049116973 0.035386276 0.052418903

conv2.bias f4 [64]
00000000: 3600 da3a a4d1 563d 5bcb d83c 56e5 41bd
00000010: b82c 113d 3ae1 cabc 9479 a3bc f088 2abc
00000020: b042 893c 4228 4a3c 82c2 33bc 97ee 41bd
00000030: 63b2 803c 28b1 7dbc f7a7 22bc 0eeb 1f3d
00000040: 33d3 653d 91d2 30bd b335 6abd 622a 51bc
00000050: fbac 18bd c63c 1bba 39f2 47bd fba4 ea3b
00000060: e1d1 9bbb 48da 2a3d 2b17 1bbc 68ca 2cbd
00000070: 79fe 3bbd ec81 d9ba 08ae 123d d7f5 793c
00000080: ccb8 343d 15f0 9dbc da25 92bc ff7b 67bb
00000090: 1134 08bd 87bc 3f3d 97aa c5bb 9b63 13bd
000000a0: f419 4e3d 4b7a ab3c a339 6cbd 8050 473d
000000b0: cefb 62bd cc16 1ebd 632b 40bd af9e 293d
000000c0: 8545 0fbc 689a 673d 1acf 55bd 7a77 2cbd
000000d0: 9ca1 b3bb 00c0 70bd de64 bb3c 04f3 cbbc
000000e0: 5fc4 3b3d 1ff5 5bbd 1f94 333c 8f8f 333d
000000f0: df5c b6bc 58ef 30bd bb90 33bd 92f8 2b3d
0.0016632143 0.052446023 0.026464155 -0.047337852 0.035443038 -0.0247656 -0.019955434 -0.010408625
0.016755432 0.0123387 -0.010971667 -0.047346678 0.015710061 -0.015484132 -0.009927741 0.039042525
0.05610962 -0.04316956 -0.057180118 -0.0127664525 -0.037274342 -0.0005921837 -0.048814986 0.0071607805
-0.004755244 0.041712075 -0.009465973 -0.042185217 -0.04589698 -0.0016594506 0.0358105 0.015256367
0.04412155 -0.01927952 -0.017840315 -0.003532171 -0.03325278 0.046810653 -0.006032299 -0.035983663
0.05031772 0.020932337 -0.057672154 0.048660755 -0.05541592 -0.03859596 -0.046916377 0.041411098
-0.008744602 0.056543738 -0.05219946 -0.04210613 -0.005481912 -0.058776855 0.022875246 -0.024896152
0.04584157 -0.053700563 0.010960608 0.04383808 -0.022261081 -0.043197006 -0.043839198 0.041985102

bn2.weight f4 [64]
00000000: 9817 803f 0e05 813f a565 7d3f 3495 843f
00000010: 540c 803f f009 7e3f cfb8 7e3f 17a0 803f
00000020: 9d70 7c3f a707 7c3f f447 803f cccf 813f
00000030: 75b7 803f 79b1 803f 3a1e 7e3f ba0f 813f
00000040: bf05 7d3f 8d99 7c3f aec6 813f 4144 813f
00000050: 0177 7e3f d88d 7d3f 0a14 813f 5e37 7e3f
00000060: 713d 7e3f 7c0a 813f 031f 803f 7350 803f
00000070: aa11 7e3f 157c 803f 2e86 803f 8fb8 803f
00000080: 23fc 803f f7d2 7e3f 9564 7e3f 6788 813f
00000090: e282 7c3f 5c37 7c3f e139 813f 5826 813f
000000a0: 547d 7e3f c40c 803f 98a3 7d3f b255 813f
000000b0: ea08 813f 4738 7e3f 5ccc 803f dd41 7e3f
000000c0: 49f7 7e3f 629e 7d3f 5b44 803f c5ad 813f
000000d0: 70dc 7f3f d110 803f 6b84 7c3f d5c5 803f
000000e0: 90ea 7f3f 5d94 7d3f 7057 813f da81 7e3f
000000f0: af85 7a3f e4c2 813f 99c6 7f3f 188a 7f3f
1.00072 1.0079668 0.9898322 1.0358033 1.0003762 0.99233913 0.99500746 1.0048856
0.98609334 0.98449177 1.0021958 1.014154 1.0055987 1.005416 0.9926487 1.0082924
0.9883689 0.986718 1.0138757 1.0098954 0.99400336 0.9904456 1.008424 0.99303234
0.993125 1.0081325 1.0009464 1.0024551 0.99245703 1.0037867 1.0040948 1.0056323
1.0076946 0.99540657 0.99372226 1.0119752 0.9863721 0.9852197 1.0095788 1.0089827
0.99409986 1.0003896 0.9907775 1.0104277 1.0080845 0.9930462 1.0062366 0.9931925
0.9959608 0.990698 1.002086 1.0131155 0.99945736 1.0005132 0.98639554 1.0060374
0.9996729 0.9905451 1.0104809 0.9941689 0.97860235 1.0137601 0.9991241 0.9982009

bn2.bias f4 [64]
00000000: c0f0 0cbc f9dd 38bc cec0 71bc 8a16 85bc
00000010: 6360 98bb deac 79bc f0ce 26bc 7a85 85bc
00000020: f7f5 b6bb ffe3 10bc 190d 46bc 4c1d 2bbc
00000030: 513e e6bb 02b8 b6ba 1821 85bb 2a0b 92bb
00000040: ed36 78bb 4322 9bbb 93ba 743b f1a8 84bb
00000050: 777d 993b cfc1 84bc 7d48 9ebc ae14 25bc
00000060: 1374 7abb dc52 1ebc 0cfe d0bb 1d17 97bb
00000070: 40dc 4ebc c3e6 a2bb 9799 12bc c3db 1d3a
00000080: 6f28 5cbb 7363 a0ba 04f8 1bba 33b7 26bc
00000090: d056 29bc a642 44bc 72c2 bcbb d507 54bc
000000a0: 0612 83ba 767e 1bba b0f4 a7bb bf36 fbbb
000000b0: f4c4 bdbb ecdb 11bb ad52 f9ba e641 503a
000000c0: 8e3f d9bb 7c4f b0bb 1e3f 0abc 01be bdbb
000000d0: c708 e93b 085a 59bc c1a5 19bb eda6 09bc
000000e0: b7d4 3ebc 50aa 88ba 18cf 53bc bbc9 9cbb
000000f0: 855f b3b9 8a27 b6bc 9b99 00bb 5827 66bc
-0.008602321 -0.011283391 -0.014755441 -0.016246099 -0.004650162 -0.015238969 -0.010181174 -0.016298998
-0.0055835205 -0.008843421 -0.012088084 -0.010443997 -0.0070264717 -0.0013940337 -0.004062783 -0.0044568973
-0.0037874535 -0.004734309 0.0037342652 -0.0040484597 0.004684146 -0.016205696 -0.019321674 -0.010075731
-0.0038216158 -0.00966331 -0.006377941 -0.0046109096 -0.012625754 -0.0049713566 -0.0089477515 0.0006021822
-0.0033593436 -0.001223667 -0.0005949738 -0.010175514 -0.010335639 -0.011978781 -0.0057604844 -0.01294132
-0.0009999878 -0.0005931625 -0.0051256046 -0.0076664384 -0.005791301 -0.0022256328 -0.0019021832 0.000794439
-0.0066298908 -0.005380569 -0.0084379 -0.0057904725 0.007111642 -0.013266094 -0.0023444744 -0.008401615
-0.011647395 -0.0010426734 -0.012927793 -0.0047847903 -0.00034212708 -0.02223565 -0.0019622806 -0.014047466

bn2.running_mean f4 [64]
00000000: b673 8b3d e4f2 51be 61c6 e33d 2ec2 0cbf
00000010: 0033 6fbe d39f 71bf bce2 40bf f25c a63e
00000020: 51ea 753e 88a3 76be 4cc6 91be 1c2e e7be
00000030: fea0 66be a7b8 2abe f561 a7be 9a2b 83be
00000040: a668 213b 0862 05be 0e9f 59be d491 4bbe
00000050: 8d90 bbbc 1882 b13d f129 e1be f743 6fbe
00000060: c905 f13d 8b7b 40bf 1469 113e 4b1f dfbe
00000070: f48b 75be 024b 33bf 8c27 903e 4232 4cbe
00000080: d53a dd3e 450c bc3e a8ef ecbe ed64 983d
00000090: 83cd 40be 89c4 7bbe c84d 8dbe 3f78 1d3e
000000a0: 82a6 043d 2b2d 09bf c739 533e 8476 50bd
000000b0: 5a22 013e faec abbe 9f21 fbbe 1607 8d3e
000000c0: 1649 483e dab2 1abd 07c3 3abf 03a1 00bf
000000d0: a223 e43c 33f1 02bf 74d5 513e 5350 85bd
000000e0: d5e2 91be ea96 5b3e 24c9 c13e c5a0 30bf
000000f0: b365 12bf b400 3dbf cf91 8bbe 7207 823e
0.068091795 -0.20502812 0.11121822 -0.54983795 -0.23359299 -0.943845 -0.7534597 0.32492787
0.24015166 -0.2408582 -0.284716 -0.45152366 -0.22522351 -0.16672002 -0.32691923 -0.25619203
0.0024629026 -0.13025677 -0.21252081 -0.19879848 -0.022896076 0.086673915 -0.4397731 -0.2336577
0.117686816 -0.7518851 0.1420024 -0.43578562 -0.23979169 -0.7003633 0.28155172 -0.19941047
0.43208948 0.3672811 -0.46276593 0.07441125 -0.18828396 -0.24586691 -0.27598405 0.15377901
0.032385357 -0.53584546 0.20627509 -0.050894275 0.1261076 -0.33579236 -0.49049088 0.2754447
0.1955913 -0.037768222 -0.7295384 -0.50245684 0.027849022 -0.5114929 0.20491582 -0.06509461
-0.28493372 0.21444288 0.3784877 -0.68995315 -0.5718643 -0.738292 -0.2725968 0.25396305

bn2.running_var f4 [64]
00000000: fc07 d53d 3080 2b3e 7416 453e edd0 043e
00000010: 38fa 8a3e 7af8 e33e 5936 233f e7b2 053e
00000020: 561f 753e f981 273e 9d0f 293e 7077 9e3e
00000030: 5426 6a3e 7cf9 623e 78c7 713e 4f4b 0b3e
00000040: c9ac 833e a46a 573e 44fb f13d a0af 2f3e
00000050: b2ea 323e 217e 9b3e 4d6c e73d f720 803e
00000060: 7598 e23e 7caf 873e 6848 613e 9742 373e
00000070: 7c9d 833e eaa2 3c3e 4916 483e 9b69 a63d
00000080: 780a 2a3e ccfa 223e 8e20 403e 1bc8 343e
00000090: b375 b63e 2d17 4b3e e631 e73d 24bf d03d
000000a0: 2bc2 513e f48a 8f3e 71cb 7e3e 9969 a73d
000000b0: 351a 583e baf7 5f3e efe8 f13d d06a 023e
000000c0: 6147 563e 484b e73d eab1 003e 500a fa3d
000000d0: 56d9 1a3e 063d 9a3e 5ec8 223e 0fae f23d
000000e0: b626 483e af27 2d3e bf84 973e ec81 073f
000000f0: a115 0a3e f8ff 483e f791 b03e f11f 803e
0.104019135 0.16748118 0.19246846 0.12970324 0.27144027 0.4452551 0.637548 0.13056527
0.23937735 0.16358174 0.16509862 0.309505 0.22866184 0.22165483 0.23611248 0.13602947
0.25717762 0.21036774 0.11815503 0.1715684 0.17472342 0.30369666 0.112999536 0.2502515
0.4425694 0.2650107 0.22000277 0.17896496 0.2570609 0.18421522 0.19539751 0.081256114
0.16605556 0.15915984 0.18762419 0.17654459 0.35636672 0.1983306 0.11288814 0.10192707
0.20484225 0.280357 0.24882294 0.08174438 0.21103747 0.21871844 0.11812007 0.12736058
0.20925666 0.11293656 0.12567869 0.12208998 0.1512197 0.30124682 0.15896747 0.11849605
0.19546017 0.1690967 0.29593465 0.5293262 0.13484813 0.19628894 0.34486362 0.2502437

conv3.weight f4 [128, 64, 3, 3]
00000000: 5f14 2a3c 513b 5d3c c682 c33c a641 0c3c
00000010: 47bd 613c a928 a0bc a4ea 21bc ced4 e03c
00000020: 72e9 b23a 16f4 58bb 51a1 9ebc ec34 0c3d
00000030: ee5f bc3c f6cf 043d 898c c03c df49 8b3c
00000040: c487 6a3c 1b12 bbbc 73a8 873c d93b 183d
00000050: 23b8 123d 0011 9c3c d925 0d3d 0993 a33b
00000060: 5fcf 883c 5778 6fbb d085 183d 341f be3b
00000070: a8af 80bc 4644 aebc 346c 6dbc 5e97 e23c
00000080: d0b8 003d 27bb e3bc 6d09 ccbc 34b7 9dbc
00000090: ee7e a43c 47d1 a0bc 51cc cc3c 256f d3bc
000000a0: a04e b03c 5a07 04bd c041 5638 d1c5 1d3d
000000b0: 9bf0 ff3b 3bbb 1b3d 1c43 efbc d9c5 81ba
000000c0: 4d74 85bb f040 26bd 75b5 cf3c 7eee d3bc
000000d0: a31e d8bc 336c c4bc 2ed9 9dbc 6ad0 af3c
000000e0: ddbd c53b 8880 01bd d490 30bc 1961 c6bb
000000f0: 3854 233d 3186 af3c 1b74 bdbc b41b ebbc
00000100: 634b e63b 09ca f13c 8a0a b0bc 4059 66bb
00000110: 6e22 4abc 1d62 023d 2441 7f3c e265 f53c
00000120: d38a 9abc 374b 1fbc 9e1f d7bc 3c2a 1ebd
00000130: 2831 9c3c d91f bbbc 5765 c33c ecf5 1e3c
00000140: 5103 c73b f439 83bb acab b5bb 6683 03bd
00000150: 05ab 55bc 7b8f 083d 3d4c 2abc 9930 03bd
00000160: d63a 10bd 08cd 93bb 4e83 25ba eea1 0a3c
00000170: 06ee 84bc 942c 4b3c e204 a33c 526e bc3c
00000180: 2090 53bb a965 02bd abb4 c93c 3598 413c
00000190: 9283 f03c d4b8 283d 35f0 0b3d 5693 54bc
000001a0: 013f 6c3b 20b5 b93c 50bb 043d 92d8 62bc
000001b0: 7e93 9d3b 32e6 f6bc 6c00 d53c dad7 32bd
000001c0: 4853 07bc cf7e 0b3d a358 5ebb 3c27 2bbc
000001d0: 7548 2f3d fefe 9e3b 2031 bd3c 221b f6bc
000001e0: 0b7e 0e3d 46c6 133d 8069 afbc 5013 2abb
000001f0: e80c f6bc efb3 f7bc 8f6c 573c e367 ee3c
00000200: b712 fabc 8dc9 db3b d099 053d ae52 4b3d
00000210: a1c2 083c 32db b1bc d4d2 fd39 c498 1d3c
00000220: 27a4 0f3d 88e5 933a 1903 04bd 3ae4 a63c
00000230: 4b09 6f3c 7e49 debc f55f d73c cf87 ac3c
00000240: bf4c f23b 816b ebbc 2df1 343c 0376 043d
00000250: 84dc 00bd 7d20 84bb 6043 1ebd e07d 6e3b
00000260: f264 883c d9ff e0bc 28ed e9bc 8d33 9b3c
00000270: cc11 2ebd 0a8b 06bc 5081 f13b b677 3c3c
00000280: 63d5 5a3c bc3a 78bb d141 483d 4272 05bc
00000290: f754 d9bc b7bf 5e3c b7a6 84bc c196 d2bb
000002a0: 3497 7ab9 0f4c f33c 4a9c 103b 541d 08bd
000002b0: be5d 903c 379e 76bc 09a6 7cbc 196b d8bc
000002c0: ddf6 89bc a8c7 d9bc 5600 95bc 8fd8 ccba
000002d0: 59be 2f3c 3923 6e3c a5a4 ca3c 9dfe 543c
000002e0: 5e92 8a3c b15b f3bc 278f bd3c a79b d3bc
000002f0: be42 5cbb bee6 24bb d445 d9b9 70c9 a4bc
00000300: d2b4 e83b f5c2 cf3b 998a b93c a7ba ae3c
00000310: 5727 9fbc 1413 72ba 5923 373c 224c 0f3d
00000320: edc9 bc3c 71f9 5c3c b4c3 cfbc ce85 48bc
00000330: 81ee a53c 02af 2cbd e1c5 cc3c 34c1 4fbb
00000340: 4317 5f3c a02f 14bd 3b39 203d eeec c23c
00000350: ab7e 1c3d a8a7 10bd bcee b63c 4a27 363d
00000360: 9d54 823c e4a7 9c3c 4d72 f63c 272d d7ba
00000370: f635 87bc 8f6b b43c 14f4 80bb 2453 c1bb
00000380: 4e21 aebb f4cb e7bc 7b9b 983c f572 b53c
00000390: 2716 e83c 8dc2 993c 94c5 e83c 5bc5 313d
000003a0: 15c9 0ebb 0357 03bd b2d9 f33c f3b7 73bc
000003b0: a700 05bd 5552 ccbc 050f f03c 640f 323c
000003c0: 55f7 47bc 0a1c 8c3c 5104 cfbc 7c38 1e3d
000003d0: 5f3a 88bc 6e99 193d 7527 0a3d 5e84 cebc
000003e0: b4aa 1cbd 752b 20bb af02 a03b 2d23 593c
000003f0: 580f c2bb 9a13 763c 9447 033d b84c f5bc
0.010380833 0.013502912 0.023866069 0.008560574 0.013778037 -0.019550638 -0.009882603 0.027445223
0.0013649894 -0.003310447 -0.019364031 0.034230158 0.022994962 0.03242489 0.023504512 0.017002998
0.014314596 -0.022835782 0.016559815 0.03716645 0.035820138 0.019051075 0.034459922 0.004991893
0.016700445 -0.0036540234 0.03723699 0.0058020595 -0.01570876 -0.02127279 -0.01449113 0.027660068
0.03142625 -0.027799202 -0.024906838 -0.019252397 0.020080056 -0.019631041 0.02499977 -0.025809834
0.021521866 -0.032233573 5.108281e-05 0.03851873 0.007810665 0.038020354 -0.029206805 -0.0009900882
-0.004072702 -0.040589273 0.02535508 -0.025870558 -0.026381796 -0.023977375 -0.019268598 0.021461684
0.0060345964 -0.031616718 -0.010776717 -0.0060540554 0.03987524 0.021426292 -0.023126652 -0.028699733
0.0070280298 0.029515283 -0.0214894 -0.0035148412 -0.01233731 0.03183185 0.015579496 0.029955808
-0.018865025 -0.009722522 -0.026260193 -0.038614497 0.019066408 -0.022842335 0.023852034 0.009702187
0.0060733934 -0.0040047113 -0.0055441465 -0.032107733 -0.0130412625 0.03333996 -0.010394153 -0.03202877
-0.03521236 -0.0045105256 -0.00063138164 0.008461459 -0.01622678 0.012400765 0.01989979 0.023001824
-0.003228195 -0.031835232 0.024622282 0.011816074 0.029359613 0.04119189 0.034164626 -0.012974581
0.0036048295 0.022669375 0.032405198 -0.01384558 0.004808842 -0.030139063 0.026001178 -0.043662883
-0.008259602 0.03405648 -0.0033927343 -0.010446366 0.04279371 0.004852175 0.023094714 -0.030042235
0.034788173 0.03607776 -0.021412611 -0.0025951453 -0.030035451 -0.030237166 0.013148441 0.029102271
-0.030526502 0.0067073763 0.03261739 0.049639396 0.008347184 -0.021710966 0.00048413 0.009618942
0.035068657 0.0011283616 -0.032229517 0.020372499 0.014589618 -0.027134653 0.026290873 0.021060852
0.0073944028 -0.028737785 0.011043829 0.032339107 -0.0314603 -0.004032193 -0.038638473 0.0036390945
0.016649697 -0.027465748 -0.028555468 0.01894548 -0.04249744 -0.00821186 0.0073701516 0.011503151
0.013356539 -0.0037876805 0.048890892 -0.008144917 -0.026529772 0.013595513 -0.016192777 -0.0064266627
-0.00023898185 0.029699354 0.0022065812 -0.033231094 0.017622825 -0.01505237 -0.015420445 -0.026418256
-0.016841346 -0.026584461 -0.018188637 -0.0015628504 0.010726535 0.014534765 0.024736712 0.013000158
0.016915496 -0.029706808 0.02313955 -0.025831057 -0.0033609117 -0.0025161947 -0.0004144149 -0.020115584
0.0071016336 0.0063403794 0.022649096 0.021329237 -0.019427938 -0.000923441 0.011177861 0.034984715
0.023045504 0.013487206 -0.025361873 -0.012238933 0.02025533 -0.042159088 0.0249967 -0.0031700851
0.013616386 -0.03617823 0.03911708 0.023794618 0.038206737 -0.03531614 0.022330634 0.044471063
0.015909487 0.019123025 0.0300838 -0.0016416655 -0.016505223 0.022023944 -0.0039353464 -0.0058998037
-0.005314029 -0.028295495 0.018628826 0.022149542 0.028330876 0.018769527 0.028414525 0.043401103
-0.0021787335 -0.032065403 0.029766891 -0.0148754 -0.032471325 -0.024941603 0.029304037 0.010867927
-0.012204965 0.017103214 -0.025270613 0.038628086 -0.016629396 0.037499838 0.033729035 -0.025209602
-0.038248733 -0.0024439965 0.0048831324 0.0132530155 -0.0059222393 0.015019322 0.032050684 -0.029943809

conv3.bias f4 [128]
00000000: fde2 a2ba 1c7f 6bbc 700c 1abc 00a8 f4bc
00000010: 885d 9b3c f078 83b8 c978 84ba 103d f3bc
00000020: d2a8 d13c 98ee d8bb a778 1d3d e1f9 203d
00000030: b0b9 e6bc 0d08 223d 52de d03c addc 743b
00000040: afda 1abd 9bb2 bdbc b2fc cd3c 7e88 773b
00000050: 8b67 2a3d e07e fcbc bc33 0c3c 4a9a 44b8
00000060: c42d 263c acb8 26bc 7b6c 0f3d a6df e6bc
00000070: d346 003d ae41 f9bc 42bb bb3c 96dc f0bc
00000080: 7457 15bd 2104 0e3d 56b6 cbbc 2f66 033c
00000090: 62d3 f63c aa1f f13a 5894 8fbb 9a28 e03c
000000a0: 98ec fbbc c0c1 0abc 1bb7 e3bc 380d 9abc
000000b0: 3495 783c 7022 703c a28f 0dbd fbd7 aabc
000000c0: 7abe d23c 4af9 f13c 5d58 1c3d 023f d3ba
000000d0: ae7b c0ba 287b 99bb 1285 b53c 3cc4 2fbc
000000e0: 98d3 e1bb d687 41bc d4b9 253c 8f8a 093b
000000f0: 4819 893c ffeb 0e3d 8b5e d6bc c56b 093d
00000100: 301b 1f3b 87a2 07bd 825f e53c 77b0 ab3b
00000110: 67a1 293d a076 bebb 00eb 68bc f0c6 783b
00000120: c41d 333c c814 e6bc 0c82 213c b318 28bd
00000130: 25a1 293d 3eec 9c3c 77b1 24bd 600c 893c
00000140: 6abe a93c 7825 d23b 501e 433c abe9 6dbc
00000150: 5673 94bc c447 29bd 9f48 c53b 3f14 163d
00000160: fc4c 0d3c b929 1c3d 3ead 823c 7f51 e3ba
00000170: e537 193d 50a8 25bd 8e6c e3bc 80e2 44bc
00000180: 0784 16bd 7c04 4fbc 733c aebc ad0c 113d
00000190: 86c6 96bb ea74 e93c 6971 063d 56e7 e0bc
000001a0: 749a 29bb 766b e9bc 5a33 b53c 7d51 103d
000001b0: b071 613c fc8e 11bc 10cc f4bc 048f 6e3c
000001c0: 14be 1cbb c674 8b3c 1f0a c5bb 5c9a 17bd
000001d0: de37 85bc 69f2 103d 4085 71bc 966a edbc
000001e0: 7978 0d3d 169a a1bc 6b1a 85bc dbe8 18bd
000001f0: e0a4 653c f671 2dbc 0ba3 0a3d ef9f b63a
-0.0012427267 -0.014373567 -0.009402379 -0.029865265 0.018965498 -6.269093e-05 -0.0010106798 -0.029692203
0.025593195 -0.0066202395 0.03844514 0.039300803 -0.028164715 0.03955846 0.025496636 0.0037362978
-0.03780621 -0.023156455 0.025144909 0.0037770565 0.041602653 -0.030822217 0.008557256 -4.6873734e-05
0.010142747 -0.010175865 0.035015564 -0.028182816 0.031317543 -0.030426826 0.02291644 -0.029402059
-0.036460355 0.034671906 -0.024867218 0.008019968 0.030130092 0.0018396277 -0.0043816976 0.02736311
-0.030752465 -0.008469045 -0.027797272 -0.018805131 0.015172292 0.014656648 -0.034560807 -0.02085494
0.025725592 0.029537816 0.038170207 -0.00161168 -0.0014685297 -0.004683871 0.02215818 -0.010727938
-0.006891679 -0.011812171 0.010115106 0.0020987128 0.016735688 0.034893032 -0.026168128 0.033550043
0.002427768 -0.033113983 0.027999643 0.005239542 0.04141369 -0.005812481 -0.014216185 0.0037960373
0.01093239 -0.028086081 0.009857666 -0.04103918 0.041413445 0.019155618 -0.040208306 0.016729534
0.02072068 0.006413158 0.0119090825 -0.014521043 -0.018121403 -0.041328207 0.00602062 0.036640402
0.008624312 0.038125727 0.015951749 -0.0017343013 0.03740682 -0.04044372 -0.027761724 -0.012016892
-0.036747005 -0.0126353465 -0.021269059 0.03541248 -0.0046013026 0.028498132 0.032823 -0.02745406
-0.0025879415 -0.028493624 0.022119213 0.035233963 0.013760015 -0.008884188 -0.02988246 0.014560465
-0.0023917006 0.017023455 -0.0060131694 -0.037012443 -0.016261991 0.03538743 -0.014741242 -0.028981488
0.03453872 -0.019726794 -0.016247949 -0.037331443 0.01401636 -0.010586252 0.033846896 0.0013933162

bn3.weight f4 [128]
00000000: 671e 833f 784a 823f 22fd 823f 0f8a 853f
00000010: f84c 853f baeb 833f a730 833f ddd5 813f
00000020: 53a5 833f 5481 833f 4291 833f 3822 833f
00000030: fd86 843f f0b1 853f 9dd2 843f 49a3 873f
00000040: 7fa2 833f 6cc7 813f 76ae 813f eff2 823f
00000050: f59b 833f 51e2 813f 3cd7 853f d0f0 843f
00000060: 18ce 823f d518 833f b05c 843f 26a1 823f
00000070: 878e 833f b95f 813f 9f3e 863f 7047 863f
00000080: dc21 843f 45fe 823f a951 863f 8761 823f
00000090: 6b79 853f b101 833f fbbe 863f be7b 843f
000000a0: 572b 853f 46b7 853f e8d0 873f 3d72 843f
000000b0: 05ea 813f d77a 823f cc6c 843f 322e 853f
000000c0: f3d4 823f 7b09 853f fa1f 833f 15fc 843f
000000d0: 6147 833f 5e98 853f 95de 813f c5f9 843f
000000e0: 4668 823f 342e 863f 0dd3 823f 8187 813f
000000f0: 0564 843f ad2a 843f fb9d 843f a9a6 813f
00000100: 95fd 823f 7b24 843f 869c 823f d33b 843f
00000110: f112 833f 099d 833f 10ef 813f 9fc4 853f
00000120: 68f2 823f 70b5 833f 1259 823f e02f 823f
00000130: 318a 833f 21c9 833f 1d59 823f 0362 833f
00000140: e4dd 833f b3e2 813f ceba 823f 83b9 823f
00000150: 53d1 823f 5bce 823f 55a3 813f 9c62 853f
00000160: e427 823f b990 833f a204 843f c4db 843f
00000170: 0032 843f b13c 833f 5195 833f 20a6 833f
00000180: ab65 863f b19e 853f 5575 813f bb78 843f
00000190: 6ad6 833f 0252 813f 86e8 843f 7be0 823f
000001a0: 216e 833f 8375 823f 52ec 813f 24e4 833f
000001b0: cc94 833f d675 843f 1f86 833f 0438 853f
000001c0: 830c 843f f6a9 853f 4432 853f 68f0 813f
000001d0: ef0b 843f c9fa 833f 4920 843f fa2c 833f
000001e0: 6fc6 843f a094 853f 9964 843f 0524 833f
000001f0: 941e 863f 827b 823f c435 813f 41a0 823f
1.0243653 1.0178976 1.02335 1.0432757 1.0414114 1.0306313 1.0249223 1.0143391
1.0284828 1.0273843 1.0278704 1.0244818 1.0353695 1.0444927 1.0376774 1.0596706
1.0283965 1.0138984 1.0131366 1.0230387 1.0281969 1.0147191 1.0456309 1.038599
1.0219145 1.0241953 1.0340786 1.0205429 1.0277871 1.0107337 1.048786 1.0490551
1.0322833 1.0233847 1.0493671 1.0186013 1.0427679 1.0234891 1.0527033 1.0350263
1.0403851 1.0446556 1.0610628 1.0347363 1.0149542 1.0193738 1.0345702 1.0404723
1.0221237 1.0393518 1.0244133 1.0389429 1.0256158 1.0437124 1.0146052 1.0388724
1.0188072 1.048285 1.0220658 1.0119478 1.0343024 1.0325524 1.0360712 1.0128986
1.0233637 1.0323633 1.0204017 1.0330757 1.0240155 1.0282298 1.0151081 1.0450629
1.0230227 1.0289745 1.0183432 1.017086 1.0276548 1.0295755 1.0183445 1.0264286
1.0302091 1.0147308 1.0213258 1.0212864 1.0220131 1.0219225 1.012797 1.0420718
1.0168424 1.0278541 1.0313914 1.0379567 1.0327759 1.0252897 1.0279943 1.0285072
1.0499777 1.0439054 1.0113932 1.0349344 1.0299809 1.0103152 1.038346 1.0224756
1.0267984 1.0192112 1.0150244 1.0303998 1.0279784 1.0348461 1.0275306 1.040772
1.0316318 1.0442493 1.0405965 1.0151491 1.0316142 1.0310909 1.0322353 1.0248101
1.0373057 1.0435982 1.03432 1.0245367 1.0478082 1.0193942 1.0094533 1.0205156

bn3.bias f4 [128]
00000000: 9e8e 393b e168 363b 9547 0aba b572 bd3b
00000010: 2099 893b 9c01 493b 2212 5e3b 281a 143b
00000020: 44ad a13b 708c 9538 3ca2 ab3b bb6e 973b
00000030: cbde 9a3b f0cf 883b 68ba c13b fd1d af3b
00000040: c813 9bb9 9cd6 dbba c557 b33a c81f 833a
00000050: f257 5d3b ac00 1cba ef5a fa3b fc0f b03b
00000060: 969f 9b3a 879f fbb7 6504 693b 223d 9b3a
00000070: c76e cf3a 41dc 053b 5025 f53b aec8 b33b
00000080: d9b5 813a 8fa2 823a b767 843b 2877 3e3b
00000090: 2eaf 593b ce2c 5d3b 4cab a13b 2149 9d3b
000000a0: 44ef 943b 02d0 b93b 1e2c d83b 9cea 9b3b
000000b0: fb09 3f39 a3d6 813b 640a 2c3b 6578 b03b
000000c0: 30bf 443b 44ce ec3b e226 b039 bc50 753b
000000d0: 2c2a f439 1dbc 9b3a 2d87 163b 6ab1 f53b
000000e0: 7974 933b 5b1e 843b 0457 6e39 2e91 283b
000000f0: 9b91 4d3b 9a88 863b c028 933b 36fe 6a3a
00000100: b241 683b 3230 703a f8ea f03a 8c65 873b
00000110: e66d b93a 4c45 ea3a 776b 593b 940b c33a
00000120: 25c0 103b 2bb6 3f3b b260 ba3b ff94 5e3b
00000130: d583 1f3b 5a00 863b d84c 623b edba 613b
00000140: 6fa6 0839 595d f439 67ed dc3a 83e5 8939
00000150: fae2 1dba 2891 313b 5593 2e39 a24c 803b
00000160: 2837 cc3a b380 8c39 51f9 103b 5af0 163b
00000170: f7bb 1e3b 8804 23ba 28ce 273b e334 873a
00000180: a307 313b c875 a83a 5ee1 5bbb f8de bc3a
00000190: 2e8a 003b 6a9b 1439 603b a33b 3342 a73a
000001a0: be58 c83b 9ca5 2a3b 26a6 e83a 99de 693b
000001b0: 71dd 9d3b 41d5 643b 0e91 c53a 69be 983b
000001c0: e523 3c3b 6359 a53b e154 703b 6cc7 d43a
000001d0: 34f4 f939 8e46 063b cd29 9e3b 7ddc e03a
000001e0: db8a b73b f055 853b 4266 443b 3d0b 9c3b
000001f0: a7e2 303b 0b59 b839 24cb 903a c824 6c3b
0.0028313766 0.0027833509 -0.0005274949 0.0057814964 0.004199162 0.0030671125 0.003388532 0.0022598598
0.004933985 7.131032e-05 0.0052378457 0.0046213544 0.004726266 0.0041751787 0.005912114 0.005344151
-0.00029578642 -0.0016772333 0.0013682774 0.0010003978 0.0033774343 -0.0005951028 0.0076402347 0.0053729992
0.0011873122 -2.9995817e-05 0.0035555598 0.001184378 0.0015825861 0.002042547 0.0074812546 0.0054865694
0.0009896114 0.0009966659 0.004040684 0.0029062722 0.0033215987 0.003374863 0.0049337503 0.0047999774
0.0045451242 0.0056705484 0.006597056 0.004758192 0.00018218897 0.0039623543 0.002625131 0.005385446
0.0030021183 0.007226737 0.00033598306 0.0037432155 0.00046570727 0.0011881624 0.0022968755 0.007497956
0.0044999686 0.004031939 0.00022729865 0.00257213 0.0031367305 0.0041056396 0.0044909418 0.0008964272
0.0035439548 0.0009162455 0.0018380573 0.0041319784 0.0014147132 0.0017873435 0.0033175626 0.001488077
0.0022087183 0.0029252868 0.0056877965 0.003396332 0.0024340053 0.0040893974 0.0034530666 0.0034443692
0.00013031972 0.00046608856 0.0016855419 0.00026301676 -0.0006022897 0.0027094577 0.00016648819 0.0039153853
0.0015580403 0.0002679877 0.002212126 0.0023031444 0.0024220922 -0.0006218632 0.0025605056 0.0010315444
0.0027012608 0.0012852484 -0.0033551077 0.0014409712 0.0019613612 0.00014172276 0.0049814433 0.0012760818
0.0061140945 0.0026038652 0.0017749711 0.0035685657 0.0048176576 0.0034917148 0.0015073137 0.0046613705
0.0028707918 0.005046056 0.0036671686 0.0016233749 0.00047674926 0.0020488831 0.0048267604 0.0017155554
0.0056012697 0.0040690824 0.0029968177 0.004762082 0.0026990564 0.00035161557 0.0011046869 0.0036032666

bn3.running_mean f4 [128]
00000000: 1a5b d73e 6b19 ddbe b249 35bd 3ab3 a03a
00000010: ca65 a33e d150 0f3e c18a 843e 936f 8bbe
00000020: aea3 3a3e b2f6 903c bd38 783e c603 f7bd
00000030: 7e03 a5be b5e0 dbbe d2f6 88bd fc4f 823e
00000040: ef8f a33e 9f27 3abe 9260 36bd d0ea 24be
00000050: 1bdc 333c 4715 d83c 0bb1 73bd 20df 1a3e
00000060: 90e2 49bd 6b8f 7dbe b01e 6d3e e62b e5bd
00000070: 363c 003f 53a8 053f 4f5b b63e 382c 993d
00000080: e77e aa3d 908c ecbd 3b84 c0bd f9ec 3c3e
00000090: 1da2 cabd b707 85bd be8a 263e 3ea1 8cbe
000000a0: f82d c1be 68e9 e5be 4c84 32be 8cd1 9cbe
000000b0: 47e0 013e 2188 cbbe 4fb7 05bc bf10 203d
000000c0: 752f efbe cafc 2b3e b9a1 1bbe 1a73 4e3e
000000d0: 4901 a73e 6e47 bb3e b10a c23e ccf3 9abe
000000e0: 0c9b 0e3e 25ad a33d 5a03 453f 330d 3cbe
000000f0: 9f1b babe ad67 4abd e60c f8bd faf7 51bf
00000100: 69d3 3b3d 6ab7 b13e e5f9 5dbe 8077 163e
00000110: 722a 313e 65e9 19be 3da2 8a3c 4ff1 19be
00000120: d7e6 0c3f 0e74 40be 2290 77be 7482 f73d
00000130: dc38 913e a523 8b3d 41f9 9b3d 1d86 2bbe
00000140: 3d55 37be c086 333e decf 403d a821 d13e
00000150: 6114 7bbe fc4e ac3e cdf4 913e 9ab6 b43e
00000160: 3b6a b73e 4778 ea3e 3f64 6e3b ce63 f1bc
00000170: 05d8 373e 8cb1 e03d 98ff 863e 06e1 e93d
00000180: 132d bc3d 6631 6b3e b7ff 04be 2d7f 903c
00000190: a6d7 1ebe 6527 183f 8d4a c1be 3245 86be
000001a0: 8189 e93d 6625 eebe 56d1 043e 1d84 2c3e
000001b0: c37b 7a3e 8edb f23e f6ab 4ebe 17e0 91be
000001c0: 8382 f7bd 3266 713d 9f18 953e a198 be3d
000001d0: b2a4 fdbc ddd0 f23e dea9 c73e da12 133e
000001e0: 8636 67be d5ed a63d 34f0 353e 6b5e 15be
000001f0: 0ecd 41be c82e e03d bd1d c6be 6de4 263e
0.42061692 -0.43183455 -0.044259734 0.0012260445 0.31913596 0.13995673 0.2588711 -0.27233562
0.18226501 0.017695758 0.24240394 -0.120612666 -0.32229227 -0.42944875 -0.06687702 0.25451648
0.3194575 -0.18179177 -0.04452569 -0.16105199 0.01097777 0.026377333 -0.059495013 0.15124178
-0.049288332 -0.24761741 0.23156238 -0.111900136 0.50091875 0.5220997 0.35616538 0.07479137
0.08324986 -0.11550248 -0.09400221 0.18449773 -0.09894202 -0.06495612 0.16263863 -0.27466768
-0.37730384 -0.44904637 -0.1743328 -0.30628622 0.12683211 -0.39752296 -0.00816138 0.03907847
-0.46715894 0.1679565 -0.15198411 0.20161095 0.32618168 0.36577934 0.37898782 -0.30264127
0.13926333 0.07992009 0.7695824 -0.1836441 -0.36349198 -0.04941528 -0.12111835 -0.8201901
0.045855913 0.34710246 -0.21677358 0.14694023 0.17301348 -0.15030439 0.016923064 -0.15033458
0.55039734 -0.18794271 -0.24176076 0.12085429 0.28363693 0.06793908 0.07615901 -0.16750379
-0.1790361 0.17531872 0.047073238 0.4084599 -0.24519493 0.3365401 0.2850708 0.35295564
0.35823235 0.4579489 0.003637567 -0.029466536 0.17953499 0.109713644 0.26366878 0.11419873
0.09188285 0.22968063 -0.12988172 0.017638767 -0.15511951 0.5943511 -0.3775219 -0.26224667
0.1140318 -0.46512908 0.1297048 0.16847272 0.24461274 0.47433132 -0.20182785 -0.2849128
-0.1208544 0.05893535 0.29120347 0.093064554 -0.030962322 0.47424975 0.38996786 0.1436266
-0.22579393 0.081508316 0.17767411 -0.14586799 -0.18925878 0.10946423 -0.38694564 0.16298075

bn3.running_var f4 [128]
00000000: 4d22 ef3d c387 5d3e 3282 be3d 24f1 a73d
00000010: 05a5 053e 6c45 d33d dcf4 2d3e d31b 033e
00000020: 8456 b33d 5a53 eb3d 425c a73d c50b 043e
00000030: e23a f73d 8f80 f73d bef7 b03d d4bf dc3d
00000040: 9beb e43d 7282 1b3e 0b54 ec3d e5a1 fd3d
00000050: 5128 003e 24af b73d 575e 993d 5d0d 093e
00000060: 45d9 dd3d 573d b63d 0b43 a33d 7f7d 983d
00000070: 0799 2c3e 9df5 643e 4d21 ad3d 96ab b13d
00000080: 5558 a93d 9885 933d d0cb 973d 6029 b53d
00000090: 8c10 a53d b046 b93d 4f2f a73d c0c2 c23d
000000a0: 760e e43d 2aa0 d13d 8e6f d23d 958a 193e
000000b0: 09b4 5c3e c70c e23d 42b0 f33d 4abe ef3d
000000c0: f806 c83d dd6b cf3d 44ed 043e 3648 b03d
000000d0: 121d e73d 4dfb b73d 29de 2e3e 70d6 f93d
000000e0: ebbf 013e 3c38 923d 0850 213e a0ed 0a3e
000000f0: 4d4b f23d d998 0d3e 08fd b33d 8bed 193e
00000100: 16ab 2a3e 4756 cc3d 68fa 133e 9855 c93d
00000110: 048e c03d a2a5 d13d 18aa eb3d 647f b53d
00000120: ca31 1f3e c1cc e73d e9e1 0c3e 0508 f43d
00000130: 32c7 e93d 9c46 913d 7f3d 2c3e d87b e03d
00000140: 668e c53d d7c9 253e 7044 9d3d 3a1f 0e3e
00000150: 10c5 cd3d 95a4 ca3d b96f e33d eaf8 ab3d
00000160: 2cd1 053e 5b37 d83d e6c5 da3d 7347 d43d
00000170: 8bbf 0c3e 89eb db3d 327c b33d 6f13 e63d
00000180: 5f8a c43d bc52 a93d ca90 943e 8b85 9b3d
00000190: 15cd d03d 78b8 673e a7f2 a43d 3985 c23d
000001a0: 219b e03d b774 cf3d 2110 d63d df18 dd3d
000001b0: 1366 0d3e 1429 1c3e 202c d13d bfa9 843d
000001c0: c613 d73d d745 e03d 0a3b d73d 4411 c33d
000001d0: 426a c33d 9aed db3d 0941 203e b40d b43d
000001e0: 670f bb3d 4271 d23d d5f0 a83d 7891 db3d
000001f0: 9b02 b43d 21ca d53d 786b 013e 2aa3 d93d
0.11676464 0.2163382 0.093021765 0.08200291 0.13051231 0.103159755 0.16987938 0.12803583
0.08756736 0.114905074 0.08171894 0.12895115 0.12071778 0.120850675 0.08641003 0.10778776
0.11177751 0.1518648 0.115394674 0.123843946 0.1251538 0.08968952 0.07488697 0.13384004
0.108324565 0.088984184 0.07971772 0.074458115 0.1685525 0.22359319 0.08453617 0.086753055
0.08268801 0.07203215 0.07411921 0.08845782 0.08059797 0.09046686 0.0816332 0.09509802
0.11135571 0.10235627 0.102751836 0.14994271 0.21553053 0.11037593 0.11898853 0.11706217
0.09766954 0.10127995 0.12981135 0.08607523 0.112848416 0.08983479 0.17076935 0.12199104
0.12670867 0.07139632 0.15753186 0.13567209 0.11830769 0.13827838 0.08788496 0.15032022
0.16666827 0.099773936 0.14450991 0.09830779 0.09402087 0.1023667 0.11507052 0.088621885
0.15546337 0.113183506 0.13758053 0.11915592 0.114149466 0.07093546 0.16820334 0.10961121
0.09646301 0.16190277 0.07679069 0.138791 0.10047352 0.09894673 0.11105294 0.08397086
0.13068074 0.10557433 0.106822774 0.1036519 0.13744943 0.10738284 0.08763923 0.112341754
0.09596705 0.082677335 0.29016715 0.07593831 0.10195366 0.22628963 0.08054095 0.094980665
0.109670885 0.101296835 0.10452295 0.107957594 0.1380847 0.15250045 0.10213494 0.06477689
0.10501818 0.10950821 0.10509308 0.095247775 0.095417514 0.10738678 0.15649809 0.08791676
0.09133797 0.102755085 0.0824906 0.10721105 0.087895595 0.10438944 0.12638652 0.10626824
